python_ai/output/color_model.tflite (tflite, 20952 bytes, 4 tensors)

tfl.pseudo_qconst1 i1 [11, 32]
0	0xfa	-6
1	0xd7	-41
2	0xb0	-80
3	0x12	18
4	0x10	16
5	0x0e	14
6	0x0c	12
7	0x9d	-99
8	0xc8	-56
9	0x9d	-99
10	0xc1	-63
11	0xa0	-96
12	0x0d	13
13	0x07	7
14	0x10	16
15	0x81	-127
16	0x98	-104
17	0x08	8
18	0xd2	-46
19	0x99	-103
20	0x18	24
21	0x13	19
22	0xcc	-52
23	0xaf	-81
24	0xe7	-25
25	0xaa	-86
26	0xae	-82
27	0x96	-106
28	0x1c	28
29	0x11	17
30	0xab	-85
31	0xc7	-57
32	0x02	2
33	0xd6	-42
34	0xd9	-39
35	0x09	9
36	0x08	8
37	0xc8	-56
38	0x09	9
39	0x0f	15
40	0x0d	13
41	0xd9	-39
42	0xd4	-44
43	0xfe	-2
44	0x0b	11
45	0xda	-38
46	0xe2	-30
47	0xdd	-35
48	0xff	-1
49	0x07	7
50	0xf6	-10
51	0x0e	14
52	0xd7	-41
53	0x06	6
54	0x15	21
55	0xc7	-57
56	0xb5	-75
57	0xd4	-44
58	0xe3	-29
59	0x0b	11
60	0xe1	-31
61	0xd7	-41
62	0x81	-127
63	0xd4	-44
64	0x0a	10
65	0xa1	-95
66	0xab	-85
67	0x0a	10
68	0x0f	15
69	0x0d	13
70	0xc9	-55
71	0xa7	-89
72	0x07	7
73	0x04	4
74	0x09	9
75	0xf5	-11
76	0xae	-82
77	0x09	9
78	0xec	-20
79	0x9a	-102
80	0xc0	-64
81	0xd7	-41
82	0xf6	-10
83	0x81	-127
84	0xd1	-47
85	0xaf	-81
86	0xc6	-58
87	0x06	6
88	0x08	8
89	0xc7	-57
90	0x0a	10
91	0x9e	-98
92	0xdb	-37
93	0x0c	12
94	0x08	8
95	0xba	-70
96	0xcf	-49
97	0xcb	-53
98	0xce	-50
99	0xe5	-27
100	0xd5	-43
101	0x0c	12
102	0x01	1
103	0x0a	10
104	0x08	8
105	0x01	1
106	0xd7	-41
107	0xd9	-39
108	0xd5	-43
109	0x06	6
110	0x81	-127
111	0xd7	-41
112	0xc7	-57
113	0x08	8
114	0x0c	12
115	0xdb	-37
116	0xd1	-47
117	0xc1	-63
118	0x0a	10
119	0xd4	-44
120	0xe5	-27
121	0x8d	-115
122	0x0a	10
123	0x0c	12
124	0x0b	11
125	0x0c	12
126	0xda	-38
127	0xa1	-95
128	0xde	-34
129	0xa3	-93
130	0xaf	-81
131	0x12	18
132	0xd4	-44
133	0xbe	-66
134	0x0e	14
135	0xc1	-63
136	0xe4	-28
137	0x08	8
138	0x94	-108
139	0x01	1
140	0x0f	15
141	0xc6	-58
142	0xba	-70
143	0xb8	-72
144	0xc9	-55
145	0xc5	-59
146	0x14	20
147	0xe1	-31
148	0x1c	28
149	0x16	22
150	0x10	16
151	0x17	23
152	0x12	18
153	0xc3	-61
154	0xb5	-75
155	0xb1	-79
156	0x19	25
157	0xf8	-8
158	0x81	-127
159	0xfb	-5
160	0x0a	10
161	0x0b	11
162	0xcb	-53
163	0xb0	-80
164	0xbd	-67
165	0xf1	-15
166	0xf8	-8
167	0x81	-127
168	0x00	0
169	0xda	-38
170	0x07	7
171	0xd5	-43
172	0xc9	-55
173	0xbe	-66
174	0x08	8
175	0xd3	-45
176	0x04	4
177	0xc4	-60
178	0xd6	-42
179	0xda	-38
180	0xe8	-24
181	0xba	-70
182	0xe7	-25
183	0x0e	14
184	0x0a	10
185	0x16	22
186	0xd3	-45
187	0x8e	-114
188	0xc2	-62
189	0xc7	-57
190	0x0c	12
191	0x0c	12
192	0xe5	-27
193	0x0f	15
194	0x0d	13
195	0x81	-127
196	0xc5	-59
197	0x0f	15
198	0x91	-111
199	0xd1	-47
200	0xd9	-39
201	0x01	1
202	0x09	9
203	0xd4	-44
204	0x08	8
205	0xc9	-55
206	0x01	1
207	0x08	8
208	0xdd	-35
209	0xf9	-7
210	0xbd	-67
211	0x0f	15
212	0xf4	-12
213	0xeb	-21
214	0xee	-18
215	0xb5	-75
216	0xbe	-66
217	0xea	-22
218	0x09	9
219	0x0d	13
220	0xe6	-26
221	0xf0	-16
222	0x06	6
223	0x05	5
224	0x0c	12
225	0xcf	-49
226	0x0f	15
227	0xe2	-30
228	0x0b	11
229	0xcd	-51
230	0xf2	-14
231	0x90	-112
232	0xb9	-71
233	0x8e	-114
234	0x13	19
235	0x0b	11
236	0x9a	-102
237	0x09	9
238	0x0f	15
239	0x91	-111
240	0xaf	-81
241	0x08	8
242	0x29	41
243	0x0e	14
244	0x15	21
245	0x85	-123
246	0xc6	-58
247	0xc2	-62
248	0xc8	-56
249	0x21	33
250	0xcd	-51
251	0x81	-127
252	0x9f	-97
253	0xbb	-69
254	0x17	23
255	0x1b	27

tfl.pseudo_qconst3 i1 [32, 64]
0	0xf4	-12
1	0x35	53
2	0xf4	-12
3	0x06	6
4	0x1e	30
5	0xfd	-3
6	0xe6	-26
7	0xf1	-15
8	0x11	17
9	0x13	19
10	0x25	37
11	0x06	6
12	0x0d	13
13	0x01	1
14	0xdc	-36
15	0x61	97
16	0x0e	14
17	0xe4	-28
18	0x00	0
19	0xf4	-12
20	0x10	16
21	0xfb	-5
22	0x1f	31
23	0xa6	-90
24	0x22	34
25	0xf4	-12
26	0x08	8
27	0xfe	-2
28	0xf3	-13
29	0x07	7
30	0x13	19
31	0x1a	26
32	0xf8	-8
33	0xfa	-6
34	0x05	5
35	0xf9	-7
36	0xe8	-24
37	0xf6	-10
38	0x18	24
39	0xe5	-27
40	0x05	5
41	0xf8	-8
42	0x02	2
43	0xf5	-11
44	0x0b	11
45	0xe9	-23
46	0xf3	-13
47	0xf0	-16
48	0x81	-127
49	0xe1	-31
50	0xf3	-13
51	0x0d	13
52	0x4c	76
53	0xed	-19
54	0x1a	26
55	0xcf	-49
56	0xfb	-5
57	0xce	-50
58	0x18	24
59	0x03	3
60	0x00	0
61	0x0b	11
62	0x36	54
63	0x2c	44
64	0xc2	-62
65	0xfa	-6
66	0x00	0
67	0xf7	-9
68	0x06	6
69	0x15	21
70	0xfe	-2
71	0x00	0
72	0x07	7
73	0xf4	-12
74	0x18	24
75	0xf4	-12
76	0x05	5
77	0x09	9
78	0xf9	-7
79	0xfd	-3
80	0xfc	-4
81	0x81	-127
82	0xff	-1
83	0xf9	-7
84	0x08	8
85	0xf5	-11
86	0xfc	-4
87	0x05	5
88	0x06	6
89	0x09	9
90	0xe9	-23
91	0x09	9
92	0x02	2
93	0xed	-19
94	0x04	4
95	0xfe	-2
96	0x08	8
97	0x08	8
98	0x06	6
99	0x06	6
100	0x04	4
101	0xfc	-4
102	0x0c	12
103	0xf0	-16
104	0xfb	-5
105	0x00	0
106	0xfc	-4
107	0xfd	-3
108	0xf3	-13
109	0xfa	-6
110	0xff	-1
111	0x03	3
112	0x02	2
113	0xec	-20
114	0xee	-18
115	0xf9	-7
116	0x09	9
117	0xec	-20
118	0x07	7
119	0x04	4
120	0xec	-20
121	0x03	3
122	0x01	1
123	0xff	-1
124	0x02	2
125	0x01	1
126	0x04	4
127	0xed	-19
128	0xfa	-6
129	0xff	-1
130	0x01	1
131	0xff	-1
132	0xfd	-3
133	0x81	-127
134	0x02	2
135	0x04	4
136	0x02	2
137	0xfe	-2
138	0xe7	-25
139	0x0b	11
140	0x00	0
141	0xff	-1
142	0xfc	-4
143	0x01	1
144	0x02	2
145	0xdf	-33
146	0x08	8
147	0xfe	-2
148	0x03	3
149	0x04	4
150	0x00	0
151	0x07	7
152	0x00	0
153	0x03	3
154	0xfd	-3
155	0xf5	-11
156	0x02	2
157	0xf3	-13
158	0xfb	-5
159	0xfa	-6
160	0x02	2
161	0xfa	-6
162	0x05	5
163	0xf5	-11
164	0xfb	-5
165	0xfd	-3
166	0xfa	-6
167	0xf7	-9
168	0xfe	-2
169	0x02	2
170	0x01	1
171	0xff	-1
172	0xfb	-5
173	0x05	5
174	0x01	1
175	0x02	2
176	0x02	2
177	0xff	-1
178	0xfa	-6
179	0xf7	-9
180	0x04	4
181	0x05	5
182	0x01	1
183	0x00	0
184	0xfe	-2
185	0x05	5
186	0x02	2
187	0x03	3
188	0x08	8
189	0xfd	-3
190	0x08	8
191	0x02	2
192	0x03	3
193	0xfc	-4
194	0xfe	-2
195	0x03	3
196	0xf2	-14
197	0x4d	77
198	0xe6	-26
199	0xe6	-26
200	0x12	18
201	0x0b	11
202	0x0b	11
203	0x13	19
204	0xa6	-90
205	0xc3	-61
206	0xd8	-40
207	0xc6	-58
208	0xf0	-16
209	0x67	103
210	0xfb	-5
211	0xf1	-15
212	0x0a	10
213	0xea	-22
214	0xfb	-5
215	0xcb	-53
216	0x3d	61
217	0xfe	-2
218	0x11	17
219	0x0b	11
220	0xf0	-16
221	0x05	5
222	0x14	20
223	0x53	83
224	0x13	19
225	0xed	-19
226	0xe8	-24
227	0x11	17
228	0x02	2
229	0x27	39
230	0x1f	31
231	0x19	25
232	0x02	2
233	0xdb	-37
234	0xfe	-2
235	0xf2	-14
236	0xdd	-35
237	0xf3	-13
238	0xf5	-11
239	0xd1	-47
240	0x9e	-98
241	0x12	18
242	0x1f	31
243	0xe4	-28
244	0x81	-127
245	0x1c	28
246	0xee	-18
247	0xe6	-26
248	0x16	22
249	0x15	21
250	0x06	6
251	0xf6	-10
252	0x0a	10
253	0x27	39
254	0x1c	28
255	0x2d	45

tfl.pseudo_qconst5 i1 [64, 128]
0	0xfb	-5
1	0x00	0
2	0x00	0
3	0xfe	-2
4	0x0b	11
5	0xf7	-9
6	0xe0	-32
7	0xff	-1
8	0xe0	-32
9	0xff	-1
10	0xff	-1
11	0xf8	-8
12	0x05	5
13	0xff	-1
14	0x07	7
15	0x06	6
16	0x02	2
17	0x05	5
18	0x00	0
19	0x27	39
20	0x19	25
21	0xfd	-3
22	0xeb	-21
23	0xb5	-75
24	0xf1	-15
25	0x99	-103
26	0xf2	-14
27	0xa8	-88
28	0xdb	-37
29	0xf2	-14
30	0xff	-1
31	0x01	1
32	0x01	1
33	0x03	3
34	0x43	67
35	0x08	8
36	0xb1	-79
37	0x01	1
38	0x02	2
39	0xff	-1
40	0x01	1
41	0x00	0
42	0xff	-1
43	0x0c	12
44	0x38	56
45	0xf5	-11
46	0x02	2
47	0x02	2
48	0x2b	43
49	0x0c	12
50	0xca	-54
51	0xdf	-33
52	0x04	4
53	0xbf	-65
54	0xdf	-33
55	0x02	2
56	0xfd	-3
57	0x00	0
58	0x12	18
59	0x0d	13
60	0x00	0
61	0x25	37
62	0x00	0
63	0x1c	28
64	0xeb	-21
65	0x12	18
66	0xee	-18
67	0xfb	-5
68	0xdf	-33
69	0xff	-1
70	0x01	1
71	0x0f	15
72	0xd2	-46
73	0x02	2
74	0xc0	-64
75	0x00	0
76	0x07	7
77	0xff	-1
78	0x12	18
79	0x29	41
80	0x15	21
81	0x08	8
82	0x02	2
83	0xa5	-91
84	0xbd	-67
85	0x01	1
86	0x37	55
87	0xff	-1
88	0xf5	-11
89	0x9f	-97
90	0xdc	-36
91	0x01	1
92	0x1d	29
93	0xfc	-4
94	0x00	0
95	0x9d	-99
96	0xff	-1
97	0x51	81
98	0xcc	-52
99	0xff	-1
100	0x2a	42
101	0x06	6
102	0x01	1
103	0x02	2
104	0x01	1
105	0x00	0
106	0x0a	10
107	0xfb	-5
108	0xfe	-2
109	0xe1	-31
110	0xfd	-3
111	0x81	-127
112	0x06	6
113	0x00	0
114	0x05	5
115	0x01	1
116	0x02	2
117	0x14	20
118	0x01	1
119	0x1f	31
120	0x00	0
121	0xfe	-2
122	0xcb	-53
123	0xff	-1
124	0x01	1
125	0xff	-1
126	0x02	2
127	0x09	9
128	0xf8	-8
129	0x12	18
130	0xfd	-3
131	0x05	5
132	0x01	1
133	0x1f	31
134	0x15	21
135	0xe0	-32
136	0x13	19
137	0xdb	-37
138	0xfe	-2
139	0xeb	-21
140	0x15	21
141	0x01	1
142	0x23	35
143	0xe8	-24
144	0xd1	-47
145	0xfb	-5
146	0xd1	-47
147	0xfe	-2
148	0xdc	-36
149	0x05	5
150	0xf4	-12
151	0x14	20
152	0xff	-1
153	0xfc	-4
154	0xfb	-5
155	0xfb	-5
156	0xf9	-7
157	0x09	9
158	0x04	4
159	0x01	1
160	0x00	0
161	0xfb	-5
162	0x0f	15
163	0x10	16
164	0x13	19
165	0xf3	-13
166	0xd0	-48
167	0xfd	-3
168	0xce	-50
169	0xff	-1
170	0x04	4
171	0x15	21
172	0x0c	12
173	0xf9	-7
174	0x00	0
175	0xfd	-3
176	0x0d	13
177	0xf4	-12
178	0x7f	127
179	0x00	0
180	0x0c	12
181	0xfb	-5
182	0xd4	-44
183	0xd5	-43
184	0xfc	-4
185	0x14	20
186	0xd4	-44
187	0x1a	26
188	0xfd	-3
189	0xd2	-46
190	0xfd	-3
191	0x1f	31
192	0x1e	30
193	0x24	36
194	0xf9	-7
195	0xff	-1
196	0xf7	-9
197	0xde	-34
198	0x18	24
199	0x6c	108
200	0x24	36
201	0xff	-1
202	0xfc	-4
203	0x01	1
204	0x00	0
205	0xff	-1
206	0xe8	-24
207	0xd3	-45
208	0xe2	-30
209	0x0e	14
210	0xce	-50
211	0xfc	-4
212	0x04	4
213	0xf7	-9
214	0x16	22
215	0xdc	-36
216	0x00	0
217	0xfd	-3
218	0x00	0
219	0x00	0
220	0x06	6
221	0x03	3
222	0x00	0
223	0xfc	-4
224	0xde	-34
225	0x21	33
226	0x41	65
227	0xff	-1
228	0xfd	-3
229	0xf4	-12
230	0xf2	-14
231	0x06	6
232	0xe9	-23
233	0x03	3
234	0xe1	-31
235	0x01	1
236	0xff	-1
237	0xf0	-16
238	0x14	20
239	0x10	16
240	0x03	3
241	0xfe	-2
242	0xf5	-11
243	0xfd	-3
244	0xe9	-23
245	0x06	6
246	0xfe	-2
247	0xee	-18
248	0x0e	14
249	0xda	-38
250	0x66	102
251	0xfe	-2
252	0xf4	-12
253	0xe1	-31
254	0xff	-1
255	0xfe	-2

tfl.pseudo_qconst7 i1 [128, 3]
0	0x81	-127
1	0xac	-84
2	0x1f	31
3	0x0e	14
4	0x81	-127
5	0xa2	-94
6	0xf1	-15
7	0xa2	-94
8	0x7f	127
9	0x7f	127
10	0x79	121
11	0x28	40
12	0x62	98
13	0x81	-127
14	0x41	65
15	0xf1	-15
16	0x81	-127
17	0x6d	109
18	0xcb	-53
19	0x81	-127
20	0x9a	-102
21	0xfa	-6
22	0x81	-127
23	0xd0	-48
24	0x81	-127
25	0xc8	-56
26	0x85	-123
27	0xf9	-7
28	0x81	-127
29	0xce	-50
30	0xb0	-80
31	0x81	-127
32	0x50	80
33	0x2f	47
34	0x7f	127
35	0xaa	-86
36	0x81	-127
37	0xed	-19
38	0x09	9
39	0x20	32
40	0x81	-127
41	0x12	18
42	0xec	-20
43	0x81	-127
44	0x6b	107
45	0x90	-112
46	0x81	-127
47	0x38	56
48	0x35	53
49	0x1f	31
50	0x81	-127
51	0x3a	58
52	0xa3	-93
53	0x7f	127
54	0x34	52
55	0x1e	30
56	0x81	-127
57	0x81	-127
58	0x1d	29
59	0xb2	-78
60	0x81	-127
61	0x01	1
62	0x0f	15
63	0x7f	127
64	0x75	117
65	0x27	39
66	0xb1	-79
67	0xa5	-91
68	0x81	-127
69	0x81	-127
70	0x67	103
71	0x25	37
72	0xdd	-35
73	0x30	48
74	0x7f	127
75	0x78	120
76	0x7f	127
77	0x2d	45
78	0x35	53
79	0x7d	125
80	0x7f	127
81	0x75	117
82	0x7f	127
83	0x2e	46
84	0x81	-127
85	0x78	120
86	0x36	54
87	0x81	-127
88	0x3c	60
89	0x21	33
90	0x7f	127
91	0x76	118
92	0x2a	42
93	0xfc	-4
94	0x81	-127
95	0x32	50
96	0x10	16
97	0x82	-126
98	0x7f	127
99	0x21	33
100	0x7f	127
101	0xbc	-68
102	0x81	-127
103	0xf7	-9
104	0xe9	-23
105	0x8e	-114
106	0x1c	28
107	0x7f	127
108	0xb7	-73
109	0xbf	-65
110	0x81	-127
111	0xe0	-32
112	0x81	-127
113	0xee	-18
114	0x34	52
115	0x1f	31
116	0x81	-127
117	0xf5	-11
118	0xa1	-95
119	0x7f	127
120	0x35	53
121	0x1f	31
122	0x81	-127
123	0x03	3
124	0x7f	127
125	0xf8	-8
126	0x7f	127
127	0x7b	123
128	0x2b	43
129	0x9e	-98
130	0x81	-127
131	0xab	-85
132	0x81	-127
133	0x03	3
134	0xa3	-93
135	0x81	-127
136	0xb5	-75
137	0xc7	-57
138	0xfd	-3
139	0x7f	127
140	0xcb	-53
141	0xf5	-11
142	0xa2	-94
143	0x7f	127
144	0x81	-127
145	0xdd	-35
146	0x28	40
147	0x7f	127
148	0x09	9
149	0x1e	30
150	0xb3	-77
151	0xa2	-94
152	0x81	-127
153	0xfb	-5
154	0x78	120
155	0x7f	127
156	0x17	23
157	0x81	-127
158	0x96	-106
159	0xd1	-47
160	0x7f	127
161	0x53	83
162	0x7f	127
163	0x22	34
164	0x05	5
165	0x33	51
166	0x1e	30
167	0x81	-127
168	0x0d	13
169	0xd9	-39
170	0x81	-127
171	0x81	-127
172	0x27	39
173	0x30	48
174	0x81	-127
175	0x91	-111
176	0xb5	-75
177	0x7f	127
178	0x0d	13
179	0x2d	45
180	0x2a	42
181	0x7f	127
182	0xfa	-6
183	0x7f	127
184	0xee	-18
185	0x11	17
186	0x29	41
187	0x7f	127
188	0xfa	-6
189	0x7f	127
190	0x10	16
191	0x2b	43
192	0x81	-127
193	0x1a	26
194	0xed	-19
195	0x76	118
196	0x81	-127
197	0xbf	-65
198	0x81	-127
199	0x78	120
200	0x34	52
201	0x8d	-115
202	0x7f	127
203	0x40	64
204	0x81	-127
205	0xe7	-25
206	0x55	85
207	0xf9	-7
208	0x81	-127
209	0xd0	-48
210	0x18	24
211	0x81	-127
212	0x93	-109
213	0xb7	-73
214	0xf0	-16
215	0x81	-127
216	0xa7	-89
217	0x7f	127
218	0xff	-1
219	0xfb	-5
220	0x81	-127
221	0x34	52
222	0xda	-38
223	0x7f	127
224	0x4d	77
225	0x7f	127
226	0x76	118
227	0x22	34
228	0x81	-127
229	0xc9	-55
230	0xc5	-59
231	0x73	115
232	0x81	-127
233	0xe5	-27
234	0x81	-127
235	0x1a	26
236	0xff	-1
237	0x81	-127
238	0x0f	15
239	0xed	-19
240	0x81	-127
241	0x8d	-115
242	0xcc	-52
243	0xa9	-87
244	0xa8	-88
245	0x81	-127
246	0x35	53
247	0x21	33
248	0x81	-127
249	0x77	119
250	0x7f	127
251	0x2d	45
252	0x81	-127
253	0xef	-17
254	0x21	33
255	0x04	4
