python_ai/output/color_model.tflite (tflite, 20952 bytes, 4 tensors)

tfl.pseudo_qconst1 i1 [11, 32]
0	0xe2	-30
1	0xdc	-36
2	0x03	3
3	0x0e	14
4	0x05	5
5	0xcb	-53
6	0xe3	-29
7	0xdb	-37
8	0x0b	11
9	0xe0	-32
10	0x0a	10
11	0xbb	-69
12	0x07	7
13	0xe7	-25
14	0x0a	10
15	0x81	-127
16	0x11	17
17	0xf0	-16
18	0xc3	-61
19	0xdf	-33
20	0xd8	-40
21	0xe0	-32
22	0xe5	-27
23	0xe3	-29
24	0xcf	-49
25	0x09	9
26	0xf0	-16
27	0xf9	-7
28	0xed	-19
29	0xf4	-12
30	0x02	2
31	0xe5	-27
32	0xfe	-2
33	0x81	-127
34	0x0d	13
35	0x23	35
36	0xa7	-89
37	0x16	22
38	0x20	32
39	0x19	25
40	0xbd	-67
41	0xc6	-58
42	0xe2	-30
43	0xec	-20
44	0xa7	-89
45	0x25	37
46	0xde	-34
47	0xd1	-47
48	0xa0	-96
49	0x14	20
50	0xa2	-94
51	0xbc	-68
52	0xad	-83
53	0x1a	26
54	0xb2	-78
55	0xcd	-51
56	0x84	-124
57	0x0c	12
58	0x21	33
59	0x18	24
60	0x11	17
61	0xb4	-76
62	0xfa	-6
63	0xea	-22
64	0x09	9
65	0xa2	-94
66	0x01	1
67	0xbf	-65
68	0x08	8
69	0xb0	-80
70	0xd7	-41
71	0xbb	-69
72	0x06	6
73	0x09	9
74	0x12	18
75	0xd3	-45
76	0xd8	-40
77	0x0e	14
78	0x0d	13
79	0xb5	-75
80	0x0f	15
81	0xb5	-75
82	0x0b	11
83	0x09	9
84	0x17	23
85	0x98	-104
86	0xe7	-25
87	0xf9	-7
88	0x10	16
89	0xd2	-46
90	0x81	-127
91	0x0d	13
92	0xa3	-93
93	0x0f	15
94	0x92	-110
95	0xa6	-90
96	0xb5	-75
97	0x81	-127
98	0x05	5
99	0xd9	-39
100	0x07	7
101	0xa9	-87
102	0x03	3
103	0xc8	-56
104	0x0c	12
105	0xe8	-24
106	0x16	22
107	0xeb	-21
108	0x04	4
109	0xea	-22
110	0xcb	-53
111	0xb7	-73
112	0xdb	-37
113	0x09	9
114	0xb7	-73
115	0xd5	-43
116	0xff	-1
117	0x10	16
118	0x09	9
119	0x06	6
120	0xa9	-87
121	0xc3	-61
122	0x0c	12
123	0x11	17
124	0x08	8
125	0x0a	10
126	0xfa	-6
127	0xe3	-29
128	0xe0	-32
129	0x0f	15
130	0x09	9
131	0x17	23
132	0x8e	-114
133	0x0d	13
134	0xc2	-62
135	0x11	17
136	0x08	8
137	0x07	7
138	0xfb	-5
139	0xb6	-74
140	0xbb	-69
141	0xcf	-49
142	0xbe	-66
143	0xa5	-91
144	0x15	21
145	0x0c	12
146	0x81	-127
147	0x0b	11
148	0x18	24
149	0x9c	-100
150	0xb3	-77
151	0x21	33
152	0xcf	-49
153	0x0a	10
154	0xbe	-66
155	0xd1	-47
156	0x08	8
157	0x91	-111
158	0xfd	-3
159	0x0f	15
160	0x0a	10
161	0x0e	14
162	0xc1	-63
163	0x81	-127
164	0xff	-1
165	0xaf	-81
166	0xaa	-86
167	0xb0	-80
168	0xb1	-79
169	0x9b	-101
170	0xdd	-35
171	0x1a	26
172	0x0c	12
173	0x09	9
174	0x11	17
175	0x0e	14
176	0x14	20
177	0xb6	-74
178	0x15	21
179	0x09	9
180	0x10	16
181	0x83	-125
182	0xa2	-94
183	0xeb	-21
184	0xd7	-41
185	0x14	20
186	0x02	2
187	0xa8	-88
188	0x86	-122
189	0x0b	11
190	0xed	-19
191	0xc0	-64
192	0xc7	-57
193	0x04	4
194	0xc7	-57
195	0xcf	-49
196	0x07	7
197	0x0d	13
198	0x0e	14
199	0x81	-127
200	0x07	7
201	0x07	7
202	0xdd	-35
203	0x03	3
204	0xeb	-21
205	0x0c	12
206	0x0b	11
207	0x0c	12
208	0xb6	-74
209	0xdb	-37
210	0x06	6
211	0xd6	-42
212	0xd1	-47
213	0x0b	11
214	0x0a	10
215	0x0a	10
216	0x0d	13
217	0x9c	-100
218	0xdf	-33
219	0x0a	10
220	0xf6	-10
221	0x0b	11
222	0xdb	-37
223	0xff	-1
224	0x00	0
225	0x0e	14
226	0xff	-1
227	0xc8	-56
228	0x07	7
229	0x09	9
230	0xd9	-39
231	0x81	-127
232	0xd2	-46
233	0xff	-1
234	0xf4	-12
235	0x13	19
236	0x09	9
237	0xd8	-40
238	0x0e	14
239	0xe0	-32
240	0xff	-1
241	0x12	18
242	0x0c	12
243	0xc8	-56
244	0xcc	-52
245	0xae	-82
246	0x0b	11
247	0xe0	-32
248	0x11	17
249	0x08	8
250	0xdb	-37
251	0xb6	-74
252	0xb5	-75
253	0xde	-34
254	0xc8	-56
255	0xba	-70

tfl.pseudo_qconst3 i1 [32, 64]
0	0xa9	-87
1	0x8b	-117
2	0xf1	-15
3	0x25	37
4	0x01	1
5	0x33	51
6	0x12	18
7	0x28	40
8	0xab	-85
9	0xfc	-4
10	0xdb	-37
11	0xff	-1
12	0xff	-1
13	0xfb	-5
14	0xff	-1
15	0xea	-22
16	0xfb	-5
17	0xf4	-12
18	0x0c	12
19	0xfb	-5
20	0x1d	29
21	0x18	24
22	0xf0	-16
23	0x24	36
24	0x0f	15
25	0x03	3
26	0xf8	-8
27	0x2d	45
28	0xe7	-25
29	0xe8	-24
30	0xc9	-55
31	0xf2	-14
32	0x81	-127
33	0x09	9
34	0xb6	-74
35	0xfc	-4
36	0x01	1
37	0xf2	-14
38	0x06	6
39	0xc1	-63
40	0xfe	-2
41	0x11	17
42	0x03	3
43	0xe8	-24
44	0x1e	30
45	0x27	39
46	0xf5	-11
47	0x22	34
48	0x17	23
49	0xcc	-52
50	0xcd	-51
51	0xfb	-5
52	0x17	23
53	0xfc	-4
54	0xf0	-16
55	0x0c	12
56	0x0d	13
57	0x15	21
58	0xed	-19
59	0xc1	-63
60	0x29	41
61	0xa1	-95
62	0xac	-84
63	0xe4	-28
64	0x02	2
65	0x06	6
66	0x06	6
67	0x03	3
68	0xfe	-2
69	0x01	1
70	0x00	0
71	0x81	-127
72	0x07	7
73	0x07	7
74	0xcb	-53
75	0x00	0
76	0x04	4
77	0xf9	-7
78	0xff	-1
79	0xf6	-10
80	0xf4	-12
81	0xee	-18
82	0x0d	13
83	0xfa	-6
84	0xff	-1
85	0xec	-20
86	0xf0	-16
87	0xf4	-12
88	0xf3	-13
89	0xf9	-7
90	0xff	-1
91	0xf9	-7
92	0x04	4
93	0x05	5
94	0x06	6
95	0xfb	-5
96	0x07	7
97	0xfa	-6
98	0x0b	11
99	0x03	3
100	0x02	2
101	0xfc	-4
102	0x05	5
103	0x03	3
104	0xfa	-6
105	0x04	4
106	0xeb	-21
107	0x08	8
108	0xf9	-7
109	0xfc	-4
110	0x00	0
111	0xfa	-6
112	0x02	2
113	0xfe	-2
114	0x06	6
115	0xf1	-15
116	0xeb	-21
117	0xf8	-8
118	0xff	-1
119	0x04	4
120	0xe8	-24
121	0xf2	-14
122	0x0a	10
123	0xf4	-12
124	0xf7	-9
125	0xff	-1
126	0xfc	-4
127	0x07	7
128	0xa8	-88
129	0xf4	-12
130	0xf9	-7
131	0xf4	-12
132	0xfa	-6
133	0xad	-83
134	0xe7	-25
135	0x03	3
136	0x02	2
137	0x09	9
138	0x36	54
139	0x04	4
140	0x0c	12
141	0xef	-17
142	0x01	1
143	0x0f	15
144	0xfc	-4
145	0x07	7
146	0x1f	31
147	0x03	3
148	0x02	2
149	0xe3	-29
150	0x04	4
151	0x0e	14
152	0x10	16
153	0x48	72
154	0x0e	14
155	0x09	9
156	0x03	3
157	0xf5	-11
158	0xf9	-7
159	0x04	4
160	0x13	19
161	0x0f	15
162	0x81	-127
163	0xf0	-16
164	0xfb	-5
165	0x01	1
166	0x0f	15
167	0x08	8
168	0xfe	-2
169	0xf5	-11
170	0x07	7
171	0x0e	14
172	0x06	6
173	0xed	-19
174	0xf5	-11
175	0xe7	-25
176	0x13	19
177	0xf9	-7
178	0x04	4
179	0xf4	-12
180	0x0d	13
181	0x29	41
182	0x81	-127
183	0x0b	11
184	0x0b	11
185	0xf5	-11
186	0x04	4
187	0x12	18
188	0xf7	-9
189	0xbb	-69
190	0x06	6
191	0x16	22
192	0x01	1
193	0xe2	-30
194	0xf7	-9
195	0x91	-111
196	0x00	0
197	0xef	-17
198	0xec	-20
199	0x17	23
200	0xf9	-7
201	0xfc	-4
202	0xfd	-3
203	0x0b	11
204	0xb6	-74
205	0xde	-34
206	0xf5	-11
207	0x03	3
208	0xd6	-42
209	0xf9	-7
210	0xed	-19
211	0xc8	-56
212	0x01	1
213	0x0b	11
214	0x15	21
215	0xf5	-11
216	0x2e	46
217	0xe9	-23
218	0x10	16
219	0x16	22
220	0xe4	-28
221	0xf8	-8
222	0x04	4
223	0x0b	11
224	0x16	22
225	0x0d	13
226	0xf9	-7
227	0x03	3
228	0x00	0
229	0x11	17
230	0xfc	-4
231	0x0e	14
232	0x0b	11
233	0xeb	-21
234	0x00	0
235	0xf0	-16
236	0xfd	-3
237	0x0e	14
238	0x05	5
239	0xf4	-12
240	0xe2	-30
241	0xee	-18
242	0x04	4
243	0x04	4
244	0xde	-34
245	0x7f	127
246	0xeb	-21
247	0x03	3
248	0x0f	15
249	0x09	9
250	0xf4	-12
251	0x30	48
252	0xff	-1
253	0x07	7
254	0xec	-20
255	0x0b	11

tfl.pseudo_qconst5 i1 [64, 128]
0	0xee	-18
1	0xec	-20
2	0xfe	-2
3	0x00	0
4	0x01	1
5	0x0e	14
6	0xbb	-69
7	0xf5	-11
8	0x05	5
9	0x0a	10
10	0x81	-127
11	0x01	1
12	0x01	1
13	0xfe	-2
14	0x0a	10
15	0x03	3
16	0x02	2
17	0x05	5
18	0xed	-19
19	0x02	2
20	0xfa	-6
21	0xfc	-4
22	0xfb	-5
23	0xfd	-3
24	0xfb	-5
25	0x09	9
26	0xec	-20
27	0x00	0
28	0x01	1
29	0xfe	-2
30	0xdb	-37
31	0x18	24
32	0x09	9
33	0x0f	15
34	0xf5	-11
35	0x31	49
36	0xfc	-4
37	0x05	5
38	0x13	19
39	0xe7	-25
40	0xfb	-5
41	0xfd	-3
42	0x01	1
43	0x04	4
44	0xfd	-3
45	0xff	-1
46	0x2c	44
47	0x00	0
48	0x03	3
49	0x0c	12
50	0x02	2
51	0xfa	-6
52	0x00	0
53	0xfc	-4
54	0x01	1
55	0xfb	-5
56	0x3f	63
57	0xfa	-6
58	0xfe	-2
59	0xfd	-3
60	0x23	35
61	0x02	2
62	0x02	2
63	0xe9	-23
64	0x05	5
65	0x0a	10
66	0x02	2
67	0xfc	-4
68	0x0a	10
69	0xfa	-6
70	0xfd	-3
71	0xfd	-3
72	0x02	2
73	0x22	34
74	0x0d	13
75	0xff	-1
76	0xf8	-8
77	0x00	0
78	0x08	8
79	0xf4	-12
80	0x00	0
81	0xfd	-3
82	0x00	0
83	0xff	-1
84	0xf9	-7
85	0x13	19
86	0x13	19
87	0xfa	-6
88	0xea	-22
89	0x24	36
90	0x01	1
91	0x0c	12
92	0x03	3
93	0x0d	13
94	0xef	-17
95	0xfb	-5
96	0x04	4
97	0xfe	-2
98	0xf4	-12
99	0x0e	14
100	0xf5	-11
101	0xfd	-3
102	0xfc	-4
103	0xfb	-5
104	0x0d	13
105	0x00	0
106	0xdf	-33
107	0xff	-1
108	0x2b	43
109	0xfe	-2
110	0x16	22
111	0x03	3
112	0xee	-18
113	0xfb	-5
114	0xfd	-3
115	0xf5	-11
116	0x04	4
117	0x1a	26
118	0x01	1
119	0x03	3
120	0xe9	-23
121	0xff	-1
122	0x01	1
123	0xff	-1
124	0x00	0
125	0x0d	13
126	0x8c	-116
127	0xfd	-3
128	0xfa	-6
129	0xff	-1
130	0xcd	-51
131	0x00	0
132	0x00	0
133	0x28	40
134	0xc3	-61
135	0x07	7
136	0x0f	15
137	0x20	32
138	0xff	-1
139	0xfb	-5
140	0x05	5
141	0x05	5
142	0xf0	-16
143	0xf9	-7
144	0xfd	-3
145	0xf6	-10
146	0xe8	-24
147	0x01	1
148	0x00	0
149	0x00	0
150	0xf6	-10
151	0xfd	-3
152	0x00	0
153	0xbb	-69
154	0x06	6
155	0x01	1
156	0x00	0
157	0xfe	-2
158	0x4c	76
159	0xdb	-37
160	0x0e	14
161	0xe3	-29
162	0x11	17
163	0x70	112
164	0x01	1
165	0xf3	-13
166	0xf1	-15
167	0xff	-1
168	0x00	0
169	0x06	6
170	0xff	-1
171	0x00	0
172	0x00	0
173	0xfe	-2
174	0xb9	-71
175	0x00	0
176	0x13	19
177	0xe1	-31
178	0xfd	-3
179	0x00	0
180	0x06	6
181	0x00	0
182	0x00	0
183	0x00	0
184	0x6d	109
185	0xff	-1
186	0x06	6
187	0x03	3
188	0xf4	-12
189	0x00	0
190	0x1c	28
191	0xff	-1
192	0x00	0
193	0xad	-83
194	0xfb	-5
195	0xe0	-32
196	0x0e	14
197	0x00	0
198	0x00	0
199	0x0d	13
200	0xed	-19
201	0xf3	-13
202	0xb1	-79
203	0xfe	-2
204	0xae	-82
205	0x00	0
206	0x0d	13
207	0xfd	-3
208	0x00	0
209	0xfe	-2
210	0x00	0
211	0x00	0
212	0xa4	-92
213	0x7f	127
214	0xa5	-91
215	0x2d	45
216	0x00	0
217	0x5a	90
218	0x00	0
219	0x43	67
220	0x00	0
221	0xff	-1
222	0xff	-1
223	0xff	-1
224	0x04	4
225	0xff	-1
226	0x04	4
227	0xbc	-68
228	0x02	2
229	0x00	0
230	0x00	0
231	0xff	-1
232	0xb5	-75
233	0x00	0
234	0xf1	-15
235	0x07	7
236	0x11	17
237	0x01	1
238	0xe8	-24
239	0xfc	-4
240	0xe9	-23
241	0xff	-1
242	0x00	0
243	0xff	-1
244	0xf4	-12
245	0xdf	-33
246	0x00	0
247	0x00	0
248	0xfb	-5
249	0x00	0
250	0x00	0
251	0x00	0
252	0x05	5
253	0xac	-84
254	0xfd	-3
255	0x01	1

tfl.pseudo_qconst7 i1 [128, 3]
0	0x02	2
1	0xb5	-75
2	0x7f	127
3	0xfd	-3
4	0x7f	127
5	0x33	51
6	0x81	-127
7	0xc5	-59
8	0xe4	-28
9	0x05	5
10	0x7f	127
11	0x33	51
12	0x04	4
13	0x7f	127
14	0x33	51
15	0xd7	-41
16	0x99	-103
17	0x81	-127
18	0x81	-127
19	0x17	23
20	0x69	105
21	0x0a	10
22	0x7f	127
23	0x4f	79
24	0x0c	12
25	0x81	-127
26	0x25	37
27	0xe3	-29
28	0x81	-127
29	0x10	16
30	0x81	-127
31	0xc1	-63
32	0xec	-20
33	0x03	3
34	0x81	-127
35	0xdc	-36
36	0xfc	-4
37	0x81	-127
38	0x5c	92
39	0xfc	-4
40	0x81	-127
41	0xcc	-52
42	0x81	-127
43	0x9e	-98
44	0xb5	-75
45	0x04	4
46	0x81	-127
47	0x81	-127
48	0x03	3
49	0x81	-127
50	0xd6	-42
51	0x04	4
52	0x81	-127
53	0x81	-127
54	0xf4	-12
55	0x10	16
56	0x7f	127
57	0x0b	11
58	0x7f	127
59	0xa6	-90
60	0x0d	13
61	0xf3	-13
62	0x81	-127
63	0x02	2
64	0x7f	127
65	0xc8	-56
66	0x81	-127
67	0x99	-103
68	0xd0	-48
69	0x22	34
70	0x63	99
71	0x7f	127
72	0x1f	31
73	0x17	23
74	0x81	-127
75	0x07	7
76	0x9a	-102
77	0x81	-127
78	0x6a	106
79	0x7f	127
80	0x3d	61
81	0x47	71
82	0x06	6
83	0x81	-127
84	0x09	9
85	0x7f	127
86	0xaf	-81
87	0x0a	10
88	0x81	-127
89	0x23	35
90	0x7f	127
91	0x34	52
92	0x20	32
93	0xc8	-56
94	0xcc	-52
95	0x81	-127
96	0x01	1
97	0x7f	127
98	0xd2	-46
99	0x81	-127
100	0x8a	-118
101	0xab	-85
102	0x01	1
103	0x7f	127
104	0xd3	-45
105	0x81	-127
106	0xac	-84
107	0x8c	-116
108	0x26	38
109	0x7f	127
110	0x03	3
111	0x04	4
112	0x83	-125
113	0x81	-127
114	0x81	-127
115	0x08	8
116	0x0d	13
117	0xfe	-2
118	0x7f	127
119	0x35	53
120	0x1f	31
121	0x17	23
122	0x81	-127
123	0xfc	-4
124	0x81	-127
125	0xcd	-51
126	0x7f	127
127	0x10	16
128	0x09	9
129	0x26	38
130	0x28	40
131	0x81	-127
132	0x03	3
133	0x7f	127
134	0xc8	-56
135	0x0c	12
136	0x81	-127
137	0x1b	27
138	0xd2	-46
139	0xff	-1
140	0x81	-127
141	0x05	5
142	0x7f	127
143	0x32	50
144	0x81	-127
145	0xe5	-27
146	0x39	57
147	0x2b	43
148	0x7f	127
149	0xee	-18
150	0x03	3
151	0x81	-127
152	0xd7	-41
153	0x04	4
154	0x7f	127
155	0xc7	-57
156	0xfc	-4
157	0x81	-127
158	0x5c	92
159	0x1f	31
160	0x18	24
161	0x81	-127
162	0x04	4
163	0x7f	127
164	0x32	50
165	0x0a	10
166	0xf3	-13
167	0x81	-127
168	0x81	-127
169	0xa9	-87
170	0x86	-122
171	0xee	-18
172	0xc9	-55
173	0x81	-127
174	0xfc	-4
175	0x81	-127
176	0xcd	-51
177	0xfd	-3
178	0x81	-127
179	0x39	57
180	0x1a	26
181	0x46	70
182	0x7f	127
183	0xfe	-2
184	0x7f	127
185	0xa2	-94
186	0x81	-127
187	0xf3	-13
188	0xd5	-43
189	0xfd	-3
190	0x7f	127
191	0x34	52
192	0x20	32
193	0x2e	46
194	0x81	-127
195	0x81	-127
196	0xdf	-33
197	0xf0	-16
198	0x7f	127
199	0x3b	59
200	0x12	18
201	0x81	-127
202	0xa4	-92
203	0xd5	-43
204	0x02	2
205	0x7f	127
206	0xd1	-47
207	0x1a	26
208	0x13	19
209	0x81	-127
210	0x23	35
211	0x18	24
212	0x81	-127
213	0x81	-127
214	0x02	2
215	0x49	73
216	0x8a	-118
217	0x81	-127
218	0xb9	-71
219	0x1a	26
220	0x46	70
221	0x7f	127
222	0x06	6
223	0x9d	-99
224	0x81	-127
225	0x0b	11
226	0x81	-127
227	0x20	32
228	0xfb	-5
229	0xd7	-41
230	0x81	-127
231	0x04	4
232	0x7f	127
233	0x33	51
234	0x0a	10
235	0x81	-127
236	0x26	38
237	0x0b	11
238	0xac	-84
239	0x7f	127
240	0x04	4
241	0x7f	127
242	0x33	51
243	0x0a	10
244	0x81	-127
245	0x21	33
246	0x04	4
247	0x7f	127
248	0x33	51
249	0x32	50
250	0x0c	12
251	0x81	-127
252	0x81	-127
253	0xf7	-9
254	0x09	9
255	0x00	0
