python_ai/output/color_model.tflite (tflite, 6352 bytes, 3 tensors)

tfl.pseudo_qconst1 i1 [12, 32]
00000000: edbb fc00 0181 fdfc fbff fff0 07fb 00ef
00000010: 0c0e ff02 f7f8 0dea f818 04fb c800 f511
00000020: 8127 0e20 e9fe 9604 1f12 e70d 3919 edf4
00000030: ae11 f4ea 040f 9812 16b5 1a2b 21fb c41d
00000040: ff4a 12e1 f3e2 080f 81f5 eee2 2100 0e00
00000050: 231e f00b 3418 27d4 d8f9 d203 f4eb 13dc
00000060: fdc7 f30b 0c09 010a b31f f8f2 fefe fd00
00000070: 070d 0105 0f0e 0700 1681 130d 15ef eb08
00000080: f408 fc08 f805 d9f5 311c f57f 0de0 f40b
00000090: 1314 04f5 fbe4 071c 0b0c 1aea 02ff b9c4
000000a0: 0e25 0a2f f611 0a04 03e1 fe0c efe8 0b03
000000b0: feda ff01 920b 0214 f716 811b 02fb 18b4
000000c0: 2c8f eb23 f239 1cee d509 f9d2 b933 1f02
000000d0: 0581 2020 d926 98c8 fc0c cb2b 1b14 2e25
000000e0: 05e5 00f3 00fe 0402 bde8 ff00 0802 fff6
000000f0: f900 ffff fbff 0281 f002 10f2 ff02 0500
-19 -69 -4 0 1 -127 -3 -4
-5 -1 -1 -16 7 -5 0 -17
12 14 -1 2 -9 -8 13 -22
-8 24 4 -5 -56 0 -11 17
-127 39 14 32 -23 -2 -106 4
31 18 -25 13 57 25 -19 -12
-82 17 -12 -22 4 15 -104 18
22 -75 26 43 33 -5 -60 29
-1 74 18 -31 -13 -30 8 15
-127 -11 -18 -30 33 0 14 0
35 30 -16 11 52 24 39 -44
-40 -7 -46 3 -12 -21 19 -36
-3 -57 -13 11 12 9 1 10
-77 31 -8 -14 -2 -2 -3 0
7 13 1 5 15 14 7 0
22 -127 19 13 21 -17 -21 8
-12 8 -4 8 -8 5 -39 -11
49 28 -11 127 13 -32 -12 11
19 20 4 -11 -5 -28 7 28
11 12 26 -22 2 -1 -71 -60
14 37 10 47 -10 17 10 4
3 -31 -2 12 -17 -24 11 3
-2 -38 -1 1 -110 11 2 20
-9 22 -127 27 2 -5 24 -76
44 -113 -21 35 -14 57 28 -18
-43 9 -7 -46 -71 51 31 2
5 -127 32 32 -39 38 -104 -56
-4 12 -53 43 27 20 46 37
5 -27 0 -13 0 -2 4 2
-67 -24 -1 0 8 2 -1 -10
-7 0 -1 -1 -5 -1 2 -127
-16 2 16 -14 -1 2 5 0

tfl.pseudo_qconst3 i1 [32, 32]
00000000: 2f12 df6b c8cd 0aad 1f13 5e35 166b 8151
00000010: f0e7 4dc1 e35d 7771 bc46 5301 bac8 682e
00000020: 1d1e 82cc ab5b 312d ea12 071f 063d 78b3
00000030: df26 2381 4220 11f1 04f3 bbf3 fe14 2122
00000040: a4c5 1706 eeb4 9238 5d69 9022 c26d 6c56
00000050: 9f22 e4d2 9481 5d05 e9db cd68 c894 31d2
00000060: 4ce1 7fd5 7b50 1718 08eb 3260 fcff 05f2
00000070: b70e 5375 bec7 fef9 c4c8 cd14 6514 f523
00000080: a282 81a1 4813 755f 5b82 b4f9 3a06 a714
00000090: da6e e039 e190 a6f9 883a bce2 85f4 b120
000000a0: 3de1 d518 c7f8 185a ee1a 5afc 0447 37f3
000000b0: 81ba 29b9 4178 355d dc71 df1e 4598 ec3a
000000c0: 2c08 813e cae3 0edc 0400 1813 ee17 c13b
000000d0: 1208 33f5 fb29 3aff e330 5ff6 d9fb 3014
000000e0: 87b8 c1b5 a75d 57dd 54bb 8daa 0056 f07f
000000f0: ad98 ae74 f2d3 ad04 c18e 354c 87bc 299c
47 18 -33 107 -56 -51 10 -83
31 19 94 53 22 107 -127 81
-16 -25 77 -63 -29 93 119 113
-68 70 83 1 -70 -56 104 46
29 30 -126 -52 -85 91 49 45
-22 18 7 31 6 61 120 -77
-33 38 35 -127 66 32 17 -15
4 -13 -69 -13 -2 20 33 34
-92 -59 23 6 -18 -76 -110 56
93 105 -112 34 -62 109 108 86
-97 34 -28 -46 -108 -127 93 5
-23 -37 -51 104 -56 -108 49 -46
76 -31 127 -43 123 80 23 24
8 -21 50 96 -4 -1 5 -14
-73 14 83 117 -66 -57 -2 -7
-60 -56 -51 20 101 20 -11 35
-94 -126 -127 -95 72 19 117 95
91 -126 -76 -7 58 6 -89 20
-38 110 -32 57 -31 -112 -90 -7
-120 58 -68 -30 -123 -12 -79 32
61 -31 -43 24 -57 -8 24 90
-18 26 90 -4 4 71 55 -13
-127 -70 41 -71 65 120 53 93
-36 113 -33 30 69 -104 -20 58
44 8 -127 62 -54 -29 14 -36
4 0 24 19 -18 23 -63 59
18 8 51 -11 -5 41 58 -1
-29 48 95 -10 -39 -5 48 20
-121 -72 -63 -75 -89 93 87 -35
84 -69 -115 -86 0 86 -16 127
-83 -104 -82 116 -14 -45 -83 4
-63 -114 53 76 -121 -68 41 -100

tfl.pseudo_qconst5 i1 [32, 3]
00000000: 5414 8146 8153 816f 39df 357f c80a 8161
00000010: 937f 7fc3 fa24 812b 8146 2081 d9af 657f
00000020: c253 0b81 81e7 497c 7f36 2c81 24e4 3b7f
00000030: 0081 8af9 8124 5d4e 81a8 1381 5181 314e
00000040: 7f5e 7f6c 7438 7f04 f4ca 7f2c 7a7f d348
00000050: 7f81 fe42 ed81 3207 cf81 7c81 dc61 1581
84 20 -127 70 -127 83 -127 111
57 -33 53 127 -56 10 -127 97
-109 127 127 -61 -6 36 -127 43
-127 70 32 -127 -39 -81 101 127
-62 83 11 -127 -127 -25 73 124
127 54 44 -127 36 -28 59 127
0 -127 -118 -7 -127 36 93 78
-127 -88 19 -127 81 -127 49 78
127 94 127 108 116 56 127 4
-12 -54 127 44 122 127 -45 72
127 -127 -2 66 -19 -127 50 7
-49 -127 124 -127 -36 97 21 -127
