android/app/src/main/assets/color_model.tflite (tflite, 6352 bytes, 3 tensors)

tfl.pseudo_qconst1 i1 [12, 32]
0	0xf3	-13
1	0x05	5
2	0x81	-127
3	0x08	8
4	0xfe	-2
5	0xd6	-42
6	0xfd	-3
7	0x1f	31
8	0xd2	-46
9	0x86	-122
10	0xfd	-3
11	0xfe	-2
12	0xe4	-28
13	0x03	3
14	0x21	33
15	0x19	25
16	0xf3	-13
17	0x20	32
18	0x00	0
19	0xfd	-3
20	0x10	16
21	0x67	103
22	0xdc	-36
23	0x26	38
24	0xc7	-57
25	0x04	4
26	0xef	-17
27	0xf3	-13
28	0x2c	44
29	0xcb	-53
30	0x94	-108
31	0x0a	10
32	0xef	-17
33	0xfb	-5
34	0x81	-127
35	0xf3	-13
36	0xf8	-8
37	0x14	20
38	0xcf	-49
39	0xfa	-6
40	0x26	38
41	0xf9	-7
42	0x0f	15
43	0x09	9
44	0xfd	-3
45	0x40	64
46	0xf4	-12
47	0xfa	-6
48	0x18	24
49	0xf3	-13
50	0x0a	10
51	0xdf	-33
52	0xff	-1
53	0x00	0
54	0x0a	10
55	0xf6	-10
56	0xb0	-80
57	0x11	17
58	0xcc	-52
59	0xe9	-23
60	0x11	17
61	0x04	4
62	0x11	17
63	0x14	20
64	0x15	21
65	0x06	6
66	0x11	17
67	0x1a	26
68	0xf9	-7
69	0x2b	43
70	0x06	6
71	0x7f	127
72	0xdc	-36
73	0x1a	26
74	0x13	19
75	0x07	7
76	0x3d	61
77	0xc4	-60
78	0xf6	-10
79	0x15	21
80	0x20	32
81	0x0d	13
82	0xe2	-30
83	0x07	7
84	0x0d	13
85	0xc0	-64
86	0xdf	-33
87	0xb2	-78
88	0x0a	10
89	0xf2	-14
90	0xef	-17
91	0x05	5
92	0xdb	-37
93	0xed	-19
94	0xc0	-64
95	0xf8	-8
96	0x03	3
97	0xfc	-4
98	0x81	-127
99	0xef	-17
100	0xfb	-5
101	0xfe	-2
102	0x0d	13
103	0x05	5
104	0xbb	-69
105	0x05	5
106	0x05	5
107	0x03	3
108	0xd2	-46
109	0xb0	-80
110	0xf4	-12
111	0x03	3
112	0xf1	-15
113	0x00	0
114	0x05	5
115	0xf2	-14
116	0x01	1
117	0x01	1
118	0x02	2
119	0x01	1
120	0xe2	-30
121	0xfe	-2
122	0xfd	-3
123	0xf8	-8
124	0x04	4
125	0x03	3
126	0x06	6
127	0x04	4
128	0x01	1
129	0xff	-1
130	0x00	0
131	0x01	1
132	0xff	-1
133	0x03	3
134	0xff	-1
135	0x00	0
136	0x04	4
137	0x00	0
138	0x02	2
139	0x03	3
140	0x00	0
141	0x81	-127
142	0x04	4
143	0x02	2
144	0xf4	-12
145	0x00	0
146	0x01	1
147	0xff	-1
148	0x00	0
149	0xff	-1
150	0x01	1
151	0xfd	-3
152	0x03	3
153	0xfa	-6
154	0xfe	-2
155	0xf6	-10
156	0x01	1
157	0xff	-1
158	0x01	1
159	0x04	4
160	0xf3	-13
161	0x10	16
162	0x76	118
163	0xfa	-6
164	0xff	-1
165	0xc2	-62
166	0x1e	30
167	0x16	22
168	0x27	39
169	0xf3	-13
170	0xdf	-33
171	0xc1	-63
172	0x3f	63
173	0x81	-127
174	0xcf	-49
175	0x07	7
176	0x9b	-101
177	0x1c	28
178	0xb6	-74
179	0x0f	15
180	0x0a	10
181	0xdb	-37
182	0xee	-18
183	0x29	41
184	0x29	41
185	0x06	6
186	0x28	40
187	0x2e	46
188	0x12	18
189	0x21	33
190	0x0d	13
191	0xcf	-49
192	0x02	2
193	0xff	-1
194	0x81	-127
195	0xf2	-14
196	0xfd	-3
197	0xf5	-11
198	0x01	1
199	0xee	-18
200	0x0a	10
201	0x0a	10
202	0xff	-1
203	0xf3	-13
204	0xd7	-41
205	0x02	2
206	0x16	22
207	0xf4	-12
208	0x05	5
209	0x00	0
210	0x04	4
211	0xf9	-7
212	0xf5	-11
213	0x05	5
214	0x06	6
215	0x00	0
216	0xf4	-12
217	0x03	3
218	0x03	3
219	0x06	6
220	0xf5	-11
221	0x04	4
222	0xfa	-6
223	0x01	1
224	0xfc	-4
225	0x02	2
226	0x81	-127
227	0xfc	-4
228	0xff	-1
229	0x00	0
230	0x03	3
231	0xce	-50
232	0xff	-1
233	0x00	0
234	0xfe	-2
235	0xfa	-6
236	0x09	9
237	0xfb	-5
238	0xf3	-13
239	0xf3	-13
240	0xf9	-7
241	0x02	2
242	0xfb	-5
243	0x01	1
244	0x04	4
245	0x06	6
246	0xfe	-2
247	0x05	5
248	0x09	9
249	0x01	1
250	0x05	5
251	0x04	4
252	0xfa	-6
253	0x02	2
254	0xf3	-13
255	0x00	0

tfl.pseudo_qconst3 i1 [32, 32]
0	0xcc	-52
1	0x26	38
2	0x0c	12
3	0x40	64
4	0xfc	-4
5	0xf7	-9
6	0xf9	-7
7	0xf6	-10
8	0x10	16
9	0x07	7
10	0xfa	-6
11	0x01	1
12	0x04	4
13	0xf0	-16
14	0xfa	-6
15	0x0e	14
16	0x13	19
17	0x04	4
18	0x0a	10
19	0x18	24
20	0x06	6
21	0x81	-127
22	0xf1	-15
23	0x99	-103
24	0xf7	-9
25	0x0a	10
26	0xd1	-47
27	0xc8	-56
28	0x51	81
29	0x02	2
30	0x04	4
31	0x01	1
32	0x31	49
33	0xec	-20
34	0x1c	28
35	0x5d	93
36	0xef	-17
37	0xb6	-74
38	0xf7	-9
39	0xf6	-10
40	0x42	66
41	0xbb	-69
42	0x4f	79
43	0x11	17
44	0xc2	-62
45	0x98	-104
46	0xd0	-48
47	0xcd	-51
48	0x81	-127
49	0x12	18
50	0x9c	-100
51	0x34	52
52	0x19	25
53	0xc1	-63
54	0xf0	-16
55	0x56	86
56	0x4b	75
57	0xfa	-6
58	0x3c	60
59	0x2d	45
60	0x14	20
61	0xf6	-10
62	0xf3	-13
63	0x87	-121
64	0x0d	13
65	0x07	7
66	0xf7	-9
67	0xbf	-65
68	0xf3	-13
69	0x0d	13
70	0xf6	-10
71	0x0d	13
72	0x05	5
73	0x9f	-97
74	0xfb	-5
75	0x0a	10
76	0xb9	-71
77	0xf7	-9
78	0xfa	-6
79	0x14	20
80	0x12	18
81	0x45	69
82	0xc0	-64
83	0x07	7
84	0xdf	-33
85	0x0c	12
86	0xfa	-6
87	0x7f	127
88	0xfa	-6
89	0x19	25
90	0xf8	-8
91	0xde	-34
92	0xf2	-14
93	0x0f	15
94	0x0d	13
95	0xee	-18
96	0xcc	-52
97	0x02	2
98	0x11	17
99	0x7b	123
100	0xf7	-9
101	0x01	1
102	0x01	1
103	0x07	7
104	0xd6	-42
105	0x08	8
106	0xf7	-9
107	0xfa	-6
108	0x15	21
109	0x11	17
110	0x35	53
111	0x27	39
112	0x2f	47
113	0xf3	-13
114	0x0c	12
115	0xfc	-4
116	0x23	35
117	0xf7	-9
118	0x06	6
119	0xb4	-76
120	0x07	7
121	0xaa	-86
122	0x81	-127
123	0x30	48
124	0x16	22
125	0xf5	-11
126	0x02	2
127	0xf3	-13
128	0x1f	31
129	0x98	-104
130	0x47	71
131	0x09	9
132	0x2d	45
133	0xa5	-91
134	0x9b	-101
135	0xfd	-3
136	0xd7	-41
137	0x95	-107
138	0xfa	-6
139	0x9c	-100
140	0x8b	-117
141	0xeb	-21
142	0xb3	-77
143	0xfa	-6
144	0x1b	27
145	0x23	35
146	0x4d	77
147	0x2c	44
148	0xf9	-7
149	0x81	-127
150	0x2d	45
151	0xe0	-32
152	0xbf	-65
153	0xec	-20
154	0xbc	-68
155	0xff	-1
156	0x9f	-97
157	0xad	-83
158	0x33	51
159	0xc2	-62
160	0x2a	42
161	0x12	18
162	0x1b	27
163	0x81	-127
164	0x00	0
165	0x00	0
166	0xfe	-2
167	0xf5	-11
168	0x05	5
169	0xdf	-33
170	0x01	1
171	0x0c	12
172	0xf6	-10
173	0x18	24
174	0xde	-34
175	0x1c	28
176	0x06	6
177	0xee	-18
178	0xe8	-24
179	0x12	18
180	0x16	22
181	0x1b	27
182	0xee	-18
183	0xcf	-49
184	0x04	4
185	0x2f	47
186	0x4d	77
187	0xd6	-42
188	0x38	56
189	0xf9	-7
190	0xfe	-2
191	0x13	19
192	0xbc	-68
193	0x0c	12
194	0x03	3
195	0xaf	-81
196	0xff	-1
197	0x0b	11
198	0x03	3
199	0x07	7
200	0xed	-19
201	0x13	19
202	0x0c	12
203	0x17	23
204	0x09	9
205	0xfa	-6
206	0x19	25
207	0x10	16
208	0x0b	11
209	0xfe	-2
210	0x01	1
211	0x1b	27
212	0xfd	-3
213	0x14	20
214	0x0e	14
215	0xbb	-69
216	0xff	-1
217	0xd8	-40
218	0xe9	-23
219	0x81	-127
220	0xfe	-2
221	0x1a	26
222	0x0a	10
223	0x20	32
224	0x00	0
225	0x20	32
226	0xea	-22
227	0xce	-50
228	0x01	1
229	0xf2	-14
230	0x05	5
231	0xe0	-32
232	0x2b	43
233	0xf5	-11
234	0xfb	-5
235	0x03	3
236	0xf6	-10
237	0x26	38
238	0xca	-54
239	0x0a	10
240	0xc9	-55
241	0xe5	-27
242	0xd6	-42
243	0x22	34
244	0x01	1
245	0x0d	13
246	0xd2	-46
247	0xc0	-64
248	0xf9	-7
249	0x7f	127
250	0x72	114
251	0x8e	-114
252	0x4c	76
253	0xff	-1
254	0x18	24
255	0x12	18

tfl.pseudo_qconst5 i1 [32, 3]
0	0x0d	13
1	0x81	-127
2	0xb9	-71
3	0x7f	127
4	0xaa	-86
5	0x1a	26
6	0x0a	10
7	0xab	-85
8	0x81	-127
9	0xae	-82
10	0x81	-127
11	0x70	112
12	0x81	-127
13	0xde	-34
14	0x07	7
15	0x2b	43
16	0x7f	127
17	0x7d	125
18	0x81	-127
19	0x00	0
20	0x08	8
21	0xf6	-10
22	0x35	53
23	0x81	-127
24	0x1e	30
25	0x5a	90
26	0x81	-127
27	0xfe	-2
28	0x7f	127
29	0xb8	-72
30	0x81	-127
31	0x92	-110
32	0xea	-22
33	0x7f	127
34	0xdf	-33
35	0x58	88
36	0xfb	-5
37	0xaa	-86
38	0x81	-127
39	0xe3	-29
40	0x81	-127
41	0x13	19
42	0x81	-127
43	0x48	72
44	0xf6	-10
45	0xe4	-28
46	0x81	-127
47	0x4c	76
48	0xa4	-92
49	0x81	-127
50	0x7f	127
51	0xed	-19
52	0xdc	-36
53	0x7f	127
54	0xd5	-43
55	0x7f	127
56	0xc6	-58
57	0x7f	127
58	0xd8	-40
59	0x4e	78
60	0xf7	-9
61	0x0f	15
62	0x81	-127
63	0x9e	-98
64	0x71	113
65	0x81	-127
66	0x81	-127
67	0x46	70
68	0x1f	31
69	0x81	-127
70	0xb7	-73
71	0x8c	-116
72	0x81	-127
73	0x8b	-117
74	0xfd	-3
75	0x81	-127
76	0xe7	-25
77	0xd7	-41
78	0x7f	127
79	0x31	49
80	0xfd	-3
81	0xcb	-53
82	0x7f	127
83	0x25	37
84	0x81	-127
85	0x02	2
86	0x11	17
87	0x07	7
88	0x50	80
89	0x7f	127
90	0x71	113
91	0x7f	127
92	0x58	88
93	0x35	53
94	0x3b	59
95	0x81	-127
