android/app/src/main/assets/color_model.tflite (tflite, 6296 bytes, 3 tensors)

tfl.pseudo_qconst1 i1 [11, 32]
0	0x0f	15
1	0xff	-1
2	0xf4	-12
3	0x03	3
4	0x0a	10
5	0x0d	13
6	0xfe	-2
7	0xf2	-14
8	0x05	5
9	0x81	-127
10	0xfd	-3
11	0xe8	-24
12	0xf5	-11
13	0x00	0
14	0xc6	-58
15	0xe9	-23
16	0x12	18
17	0xe8	-24
18	0x19	25
19	0xc3	-61
20	0xb6	-74
21	0x16	22
22	0xf2	-14
23	0xfd	-3
24	0xbc	-68
25	0xd4	-44
26	0x01	1
27	0x08	8
28	0x02	2
29	0x95	-107
30	0xfc	-4
31	0xf9	-7
32	0xf0	-16
33	0xfd	-3
34	0x17	23
35	0x81	-127
36	0xa5	-91
37	0x21	33
38	0xf9	-7
39	0x27	39
40	0xe7	-25
41	0xe0	-32
42	0xd4	-44
43	0x28	40
44	0x1f	31
45	0x2a	42
46	0xf4	-12
47	0xfb	-5
48	0x31	49
49	0x32	50
50	0xbc	-68
51	0xb5	-75
52	0xc3	-61
53	0x45	69
54	0x3c	60
55	0x1c	28
56	0x22	34
57	0xa5	-91
58	0x29	41
59	0xfa	-6
60	0xee	-18
61	0xbf	-65
62	0x2c	44
63	0x20	32
64	0x10	16
65	0x04	4
66	0x03	3
67	0x0c	12
68	0x03	3
69	0x06	6
70	0xfd	-3
71	0xff	-1
72	0x0e	14
73	0x00	0
74	0x09	9
75	0xf6	-10
76	0xe6	-26
77	0x08	8
78	0x07	7
79	0xfc	-4
80	0xfd	-3
81	0xe1	-31
82	0x0e	14
83	0xfd	-3
84	0xfd	-3
85	0xd1	-47
86	0x81	-127
87	0x07	7
88	0xea	-22
89	0x04	4
90	0xfe	-2
91	0x07	7
92	0xfa	-6
93	0xf2	-14
94	0xfb	-5
95	0xfd	-3
96	0x12	18
97	0xf7	-9
98	0xfe	-2
99	0xf0	-16
100	0xf9	-7
101	0x0d	13
102	0xf6	-10
103	0x16	22
104	0xf9	-7
105	0xe5	-27
106	0x07	7
107	0xf0	-16
108	0x81	-127
109	0xf0	-16
110	0xf7	-9
111	0x02	2
112	0x84	-124
113	0x0c	12
114	0x17	23
115	0xf4	-12
116	0xf7	-9
117	0xfe	-2
118	0xa7	-89
119	0x10	16
120	0xed	-19
121	0x09	9
122	0x28	40
123	0xf8	-8
124	0x08	8
125	0xa8	-88
126	0x16	22
127	0x11	17
128	0xfc	-4
129	0x05	5
130	0x07	7
131	0xff	-1
132	0xfb	-5
133	0x0a	10
134	0xf7	-9
135	0xea	-22
136	0x13	19
137	0x07	7
138	0xfc	-4
139	0x14	20
140	0x81	-127
141	0x0d	13
142	0x0d	13
143	0xd6	-42
144	0x02	2
145	0x06	6
146	0x0b	11
147	0xd8	-40
148	0xd5	-43
149	0x15	21
150	0xf6	-10
151	0xfb	-5
152	0x14	20
153	0xfe	-2
154	0xf9	-7
155	0xff	-1
156	0x05	5
157	0xf1	-15
158	0x05	5
159	0xe4	-28
160	0x03	3
161	0x02	2
162	0x02	2
163	0x07	7
164	0x0d	13
165	0xdf	-33
166	0xfb	-5
167	0xe8	-24
168	0x06	6
169	0xfb	-5
170	0x0c	12
171	0xe5	-27
172	0xf1	-15
173	0xdb	-37
174	0x00	0
175	0xf8	-8
176	0x81	-127
177	0xca	-54
178	0x09	9
179	0x03	3
180	0xfe	-2
181	0xb1	-79
182	0xf3	-13
183	0xfd	-3
184	0xf6	-10
185	0x09	9
186	0x02	2
187	0xfd	-3
188	0xfd	-3
189	0x04	4
190	0xf1	-15
191	0xe5	-27
192	0x02	2
193	0x01	1
194	0xe9	-23
195	0xfe	-2
196	0xdb	-37
197	0x03	3
198	0x02	2
199	0x13	19
200	0xfe	-2
201	0xf9	-7
202	0xea	-22
203	0xf5	-11
204	0x07	7
205	0x0d	13
206	0x01	1
207	0x03	3
208	0x81	-127
209	0x0d	13
210	0xdd	-35
211	0x1e	30
212	0x1c	28
213	0x13	19
214	0x1d	29
215	0xf0	-16
216	0xf4	-12
217	0x0b	11
218	0x02	2
219	0x0a	10
220	0xf5	-11
221	0x1c	28
222	0xe2	-30
223	0xfe	-2
224	0x0e	14
225	0xfa	-6
226	0xfd	-3
227	0x02	2
228	0x06	6
229	0x08	8
230	0x00	0
231	0xf3	-13
232	0xdd	-35
233	0xef	-17
234	0x0c	12
235	0x81	-127
236	0x12	18
237	0xe5	-27
238	0xec	-20
239	0x09	9
240	0x16	22
241	0xbe	-66
242	0xf3	-13
243	0x0e	14
244	0x07	7
245	0xd7	-41
246	0xf4	-12
247	0xe6	-26
248	0x08	8
249	0xfc	-4
250	0x07	7
251	0xfa	-6
252	0xfd	-3
253	0x0a	10
254	0xee	-18
255	0xef	-17

tfl.pseudo_qconst3 i1 [32, 32]
0	0x81	-127
1	0xf3	-13
2	0xf6	-10
3	0x11	17
4	0xf6	-10
5	0xe9	-23
6	0x1c	28
7	0x0e	14
8	0x09	9
9	0xd5	-43
10	0x45	69
11	0x0c	12
12	0x0e	14
13	0x52	82
14	0x3a	58
15	0x18	24
16	0x03	3
17	0x30	48
18	0x06	6
19	0xeb	-21
20	0x13	19
21	0xf6	-10
22	0xfd	-3
23	0xe5	-27
24	0xf5	-11
25	0x0a	10
26	0xd7	-41
27	0xdc	-36
28	0x49	73
29	0xe5	-27
30	0xf6	-10
31	0x16	22
32	0x0b	11
33	0xdb	-37
34	0xfb	-5
35	0xdf	-33
36	0xd9	-39
37	0x26	38
38	0xf5	-11
39	0xd1	-47
40	0x0b	11
41	0x23	35
42	0xe2	-30
43	0x81	-127
44	0x68	104
45	0x26	38
46	0x40	64
47	0xe8	-24
48	0x9a	-102
49	0x1b	27
50	0xa9	-87
51	0xdc	-36
52	0x19	25
53	0x0b	11
54	0x2a	42
55	0x99	-103
56	0x38	56
57	0x65	101
58	0xc7	-57
59	0x1d	29
60	0x02	2
61	0x69	105
62	0x8f	-113
63	0xc9	-55
64	0xba	-70
65	0x58	88
66	0x52	82
67	0xeb	-21
68	0xdb	-37
69	0x32	50
70	0x45	69
71	0xe5	-27
72	0xdf	-33
73	0x14	20
74	0xd9	-39
75	0x0f	15
76	0xd5	-43
77	0x81	-127
78	0x4e	78
79	0x2e	46
80	0x2c	44
81	0xc0	-64
82	0x1f	31
83	0x62	98
84	0x78	120
85	0x02	2
86	0x34	52
87	0xff	-1
88	0x05	5
89	0x39	57
90	0x91	-111
91	0x2c	44
92	0xd5	-43
93	0x1d	29
94	0x25	37
95	0xd8	-40
96	0x81	-127
97	0xed	-19
98	0xea	-22
99	0x26	38
100	0x12	18
101	0x0d	13
102	0xca	-54
103	0x0d	13
104	0x3b	59
105	0xe7	-25
106	0x24	36
107	0x28	40
108	0x14	20
109	0x17	23
110	0xf4	-12
111	0x32	50
112	0x2b	43
113	0xf9	-7
114	0x2c	44
115	0xf9	-7
116	0x1e	30
117	0xcf	-49
118	0xef	-17
119	0xd3	-45
120	0x1a	26
121	0x2e	46
122	0xf8	-8
123	0xef	-17
124	0x03	3
125	0xd2	-46
126	0x19	25
127	0xe3	-29
128	0x81	-127
129	0xfc	-4
130	0xff	-1
131	0x09	9
132	0xfc	-4
133	0x08	8
134	0x06	6
135	0xf2	-14
136	0x06	6
137	0xe8	-24
138	0x0c	12
139	0xf7	-9
140	0x04	4
141	0x16	22
142	0x11	17
143	0x14	20
144	0x0c	12
145	0x05	5
146	0x0f	15
147	0xf8	-8
148	0x17	23
149	0xf4	-12
150	0x05	5
151	0xf5	-11
152	0x0c	12
153	0x08	8
154	0xe8	-24
155	0xe6	-26
156	0x0d	13
157	0xf4	-12
158	0x06	6
159	0x06	6
160	0x19	25
161	0x1d	29
162	0x01	1
163	0xde	-34
164	0x02	2
165	0xf8	-8
166	0x54	84
167	0x30	48
168	0xd1	-47
169	0x0c	12
170	0x18	24
171	0x29	41
172	0xf9	-7
173	0x32	50
174	0x4f	79
175	0xdf	-33
176	0xcd	-51
177	0x7f	127
178	0xf9	-7
179	0x00	0
180	0x30	48
181	0x2e	46
182	0x24	36
183	0x13	19
184	0xf5	-11
185	0xec	-20
186	0xf6	-10
187	0x0d	13
188	0x46	70
189	0x0c	12
190	0xf4	-12
191	0x60	96
192	0x0d	13
193	0xab	-85
194	0x51	81
195	0xd0	-48
196	0x55	85
197	0xa6	-90
198	0xb7	-73
199	0x82	-126
200	0xde	-34
201	0x4f	79
202	0x30	48
203	0x1f	31
204	0x59	89
205	0xec	-20
206	0x9b	-101
207	0x67	103
208	0x13	19
209	0x8e	-114
210	0x74	116
211	0x06	6
212	0x4c	76
213	0x10	16
214	0x81	-127
215	0xcb	-53
216	0xbe	-66
217	0x82	-126
218	0xb4	-76
219	0x3d	61
220	0xcb	-53
221	0xe5	-27
222	0x74	116
223	0x96	-106
224	0x7f	127
225	0x2b	43
226	0x04	4
227	0x1f	31
228	0x18	24
229	0x03	3
230	0x1c	28
231	0x53	83
232	0x4a	74
233	0x36	54
234	0x05	5
235	0x2e	46
236	0xea	-22
237	0xd8	-40
238	0xe7	-25
239	0xc7	-57
240	0xf1	-15
241	0xf2	-14
242	0xff	-1
243	0xfd	-3
244	0xe3	-29
245	0x2d	45
246	0xff	-1
247	0x1f	31
248	0xfc	-4
249	0x12	18
250	0x34	52
251	0x67	103
252	0x27	39
253	0x18	24
254	0xf1	-15
255	0x11	17

tfl.pseudo_qconst5 i1 [32, 3]
0	0x81	-127
1	0x45	69
2	0xa2	-94
3	0x7f	127
4	0xac	-84
5	0xae	-82
6	0x1f	31
7	0x81	-127
8	0xc8	-56
9	0x1d	29
10	0x7f	127
11	0x31	49
12	0x81	-127
13	0x92	-110
14	0xa0	-96
15	0x7f	127
16	0xd7	-41
17	0x31	49
18	0xe0	-32
19	0x81	-127
20	0xa5	-91
21	0x31	49
22	0x7f	127
23	0x9b	-101
24	0x50	80
25	0x7f	127
26	0x13	19
27	0x39	57
28	0x1c	28
29	0x81	-127
30	0xce	-50
31	0x7f	127
32	0xf6	-10
33	0x2f	47
34	0x7f	127
35	0x92	-110
36	0xc7	-57
37	0x83	-125
38	0x81	-127
39	0xc1	-63
40	0x7f	127
41	0x16	22
42	0xdc	-36
43	0x81	-127
44	0x1f	31
45	0x16	22
46	0x54	84
47	0x7f	127
48	0x41	65
49	0x7f	127
50	0x5f	95
51	0x81	-127
52	0x1d	29
53	0x81	-127
54	0x06	6
55	0x94	-108
56	0x7f	127
57	0x4a	74
58	0x81	-127
59	0x1b	27
60	0xe3	-29
61	0x81	-127
62	0x47	71
63	0xfd	-3
64	0xd9	-39
65	0x81	-127
66	0x17	23
67	0x81	-127
68	0x05	5
69	0x7f	127
70	0xb9	-71
71	0x9d	-99
72	0x7f	127
73	0x08	8
74	0x36	54
75	0x62	98
76	0x7f	127
77	0x6b	107
78	0x81	-127
79	0x3b	59
80	0xa9	-87
81	0x7c	124
82	0x23	35
83	0x81	-127
84	0xdb	-37
85	0x7f	127
86	0xbe	-66
87	0x1e	30
88	0xcc	-52
89	0x81	-127
90	0x7f	127
91	0xbc	-68
92	0x0c	12
93	0xc2	-62
94	0x9b	-101
95	0x81	-127
