android/app/src/main/assets/color_model.tflite (tflite, 8404 bytes, 6 tensors)

arith.constant f4 [32]
0	0xbdd1472d	-0.10218654
1	0x3ea925e0	0.3303671
2	0xbdcb9f18	-0.09942454
3	0xbd7043fe	-0.058658592
4	0x00000000	0.0
5	0xbd22ad07	-0.039715793
6	0xbd13cd9a	-0.03608475
7	0x3e682e8c	0.22674006
8	0x3e17b166	0.14813766
9	0x3e079b3d	0.13242812
10	0x3de618e4	0.11235216
11	0xbd0bb59c	-0.034108743
12	0xbccf643a	-0.025316346
13	0x3a800a3c	0.0009768675
14	0x3e92d0cb	0.2867492
15	0xbdb32d8c	-0.08748922
16	0x3d02eff5	0.031967122
17	0xbd679ead	-0.05654781
18	0x3ee84b7a	0.45370084
19	0x3ea04ad9	0.31307104
20	0x3e47d774	0.19515783
21	0x3e7357b7	0.2376393
22	0x3ee0a050	0.4387231
23	0xbd239d3c	-0.039944872
24	0x3e862ce9	0.2620614
25	0x3dc2ef9c	0.09518358
26	0xbd2459fd	-0.040124882
27	0x3cf5fc0c	0.030027412
28	0x3e153cf3	0.14574032
29	0x3e485885	0.19565018
30	0x3e1617a2	0.14657453
31	0x3c377263	0.0111967055

arith.constant1 f4 [12]
0	0xbd9fbf3b	-0.07800146
1	0x3ea6507c	0.3248328
2	0xbb9ce78c	-0.0047883447
3	0x3ea4b6a9	0.3217061
4	0x3d828f20	0.06374955
5	0xbd8c06cd	-0.06837235
6	0xbe5cf70a	-0.21578613
7	0xbe4c0572	-0.19923952
8	0x3de8332b	0.113378845
9	0xbe952f1a	-0.29137498
10	0xbcb9b98e	-0.022671487
11	0xbe1776d6	-0.14791426

arith.constant2 f4 [12, 32]
0	0xbf2758f0	-0.6537008
1	0x3e1e0d8f	0.1543486
2	0xbf4224aa	-0.75837195
3	0xbbc03e43	-0.005866797
4	0xbe90f5e1	-0.2831259
5	0xbe243686	-0.16036424
6	0x3ea70bbd	0.32626143
7	0xbf2af81a	-0.6678482
8	0xbe0b742b	-0.13618533
9	0xbefe275f	-0.49639413
10	0x3f394af7	0.7238001
11	0x3dec143d	0.11527298
12	0x3d22765c	0.039663658
13	0x3d290718	0.04126653
14	0xbe9f8fb4	-0.31164324
15	0x3f106a2b	0.56412
16	0xbf529209	-0.8225408
17	0x3e90b730	0.2826476
18	0x3ef7a88d	0.48370782
19	0x3f24294e	0.64125526
20	0xbf52ee51	-0.8239489
21	0xbfeface4	-1.8724637
22	0x3f3430af	0.70386785
23	0xbec49ed8	-0.38402438
24	0xbe2b9bfd	-0.16758724
25	0xbfbe17b8	-1.4850988
26	0xbe35e59c	-0.1776337
27	0x3eca6eff	0.39537808
28	0xbe05c596	-0.13063654
29	0x3f1c1696	0.60971963
30	0x3e9ca958	0.3059795
31	0xc03e559a	-2.9739747
32	0x3f000c2a	0.5001856
33	0xbf5a27af	-0.852168
34	0xbe1e3e36	-0.15453419
35	0x3db41c7f	0.08794498
36	0x3ea11245	0.3145925
37	0xbe800c68	-0.25009465
38	0xbe71e9cc	-0.23624343
39	0x3f2fa059	0.68604046
40	0xbf678ad8	-0.90446234
41	0xbfa109db	-1.2581133
42	0xbf6ffddb	-0.9374673
43	0xbecc5a66	-0.3991272
44	0x3e91f5af	0.28507754
45	0x3e803147	0.25037596
46	0x3f0b825f	0.54495806
47	0xbef13dec	-0.47117555
48	0x3e9fddb7	0.31223843
49	0xbe51c5ed	-0.20485659
50	0xbf0e4255	-0.55569965
51	0x3de5fb9c	0.11229631
52	0x3e8e4cde	0.2779302
53	0xbfa676c4	-1.3004994
54	0x3d85176d	0.06498609
55	0x3ccd9961	0.02509755
56	0x3f256d7a	0.6462017
57	0xbf5ed01e	-0.8703631
58	0xbeb8b40c	-0.36074865
59	0xbf2ef102	-0.683365
60	0xbe882c32	-0.26596218
61	0xbe4efb08	-0.20212948
62	0x3e09e7f6	0.13467392
63	0xbcf6d061	-0.03012866
64	0xc021c77e	-2.527801
65	0x3ed53161	0.41639236
66	0xbf969b5f	-1.1766165
67	0xbe401cbf	-0.18760966
68	0x3e349952	0.17636612
69	0xbe5942c5	-0.21216877
70	0xbe5c48e3	-0.21512179
71	0x3e1856bb	0.14876835
72	0x3ee471fb	0.4461821
73	0x3ee1508d	0.44006768
74	0x3eff9d81	0.49924853
75	0xbdd4b301	-0.10385705
76	0x3e1998ce	0.14999697
77	0xbe6934b8	-0.22774017
78	0xbf202c8d	-0.6256798
79	0x3e192da6	0.1495882
80	0xbf4b4132	-0.79396355
81	0x3e1c913d	0.15289779
82	0x3f05c049	0.5224653
83	0xbe1ab911	-0.1510966
84	0x3fd87971	1.6912061
85	0x3ecfae47	0.4056265
86	0xbee2fe27	-0.44334528
87	0xbe4e88fd	-0.20169444
88	0xbf7e268f	-0.99277586
89	0x3d38a62c	0.04508035
90	0xbd8c6b2e	-0.068563804
91	0x3e972c8c	0.29526174
92	0xbb46fa43	-0.003036157
93	0x3e8d4381	0.27590564
94	0x3eac3fb2	0.33642346
95	0xbf5a5dcf	-0.8529939
96	0x3d331576	0.04372164
97	0x3e5dc793	0.21658163
98	0x3b9b17b8	0.004733052
99	0x3eaf3be3	0.34225377
100	0xbe93d85f	-0.28876016
101	0xbe186a84	-0.14884382
102	0xbe5ec81a	-0.2175602
103	0xbdd1c430	-0.10242498
104	0xbdb907d4	-0.09034696
105	0xbe8481e5	-0.25880352
106	0xbf64f49f	-0.8943576
107	0x3dbf29d0	0.09334147
108	0xbd1f6472	-0.03891415
109	0x3e8663b4	0.26247942
110	0xbb9bac93	-0.004750797
111	0xbfd996ec	-1.6999183
112	0x3da6b51c	0.081400126
113	0xbd4c2b95	-0.04984625
114	0x3eed710d	0.46375313
115	0xbdbdd20b	-0.09268578
116	0xbf7f9a56	-0.9984487
117	0x3e13bee1	0.14428283
118	0x3e9b1d55	0.30295816
119	0x3dbe2d96	0.092860386
120	0x3e14408a	0.14477745
121	0x3e40b02d	0.18817206
122	0x3e05cd40	0.13066578
123	0xbf5dd23d	-0.86648923
124	0xbd007a34	-0.031366542
125	0xbd847610	-0.06467831
126	0x3e4c12b5	0.19929011
127	0xbd8623eb	-0.065498196
128	0xbf07391d	-0.5282152
129	0xbf417839	-0.7557407
130	0xbefb524e	-0.4908623
131	0xbdd5a5e5	-0.104320325
132	0x3c92e100	0.017929554
133	0xbe651fd3	-0.22375421
134	0xbeaaa94a	-0.33332282
135	0x3f002804	0.5006106
136	0x3f0ab8f6	0.5418848
137	0xbf0c5cda	-0.5482918
138	0xbda24402	-0.07923128
139	0xbdd4e53e	-0.10395287
140	0xbdb3db63	-0.08782079
141	0x3e0499f5	0.12949355
142	0x3e97f389	0.2967799
143	0x3e576b3e	0.21037003
144	0xbf4a26d7	-0.78965515
145	0xbdf67f93	-0.120360516
146	0x3ee70b81	0.45125964
147	0xbd8f9f2f	-0.07012784
148	0xbf9f0a5b	-1.2425035
149	0xbe67dc16	-0.2264255
150	0xbf5eda0a	-0.8705145
151	0xbde7a5cb	-0.113109194
152	0xbeae2ef4	-0.34020197
153	0x3d5d2340	0.053988695
154	0x3ea1c6e1	0.31597045
155	0xbe70464e	-0.23464319
156	0x3ed8af42	0.4232121
157	0x3d2cfae0	0.04223144
158	0x3f569b60	0.83830833
159	0x3ef9d65f	0.48796365
160	0xbda4c249	-0.080448695
161	0x3f01d76e	0.50719345
162	0xbe451cee	-0.19249317
163	0x3de03073	0.10946741
164	0x3cb095d0	0.021555811
165	0x3dec92b9	0.115514226
166	0xbe4a67b7	-0.19766127
167	0xbf2e1c65	-0.68012077
168	0x3e70f917	0.2353252
169	0x3e51578c	0.20443553
170	0x3d4799c5	0.04873063
171	0x3e8f95ff	0.28044125
172	0xbe98f3b1	-0.29873422
173	0x3ea9cbe0	0.33163357
174	0xbec515c0	-0.38493156
175	0x3e972a0f	0.29524276
176	0xbd2cf1a9	-0.042222653
177	0xbd9bbfd5	-0.076049484
178	0x3e02e77b	0.12783615
179	0xbe1f9438	-0.15583885
180	0xbfd10b92	-1.6331656
181	0xbe81a102	-0.25318152
182	0xbe096e96	-0.13421091
183	0xbe4e128b	-0.20124261
184	0xbf6a3ba0	-0.9149723
185	0x3ec0ee7e	0.37681955
186	0xbe1e2eae	-0.15447494
187	0x3ed380ac	0.41309106
188	0x3e9ff83a	0.3124407
189	0x3eb9e503	0.36307535
190	0xbf89c101	-1.0762025
191	0x3e9a2a42	0.30110365
192	0xbd0dd188	-0.034623653
193	0x3f0ee52b	0.5581843
194	0x3ed2119c	0.4102906
195	0xbe5c7683	-0.21529584
196	0xbc8f28a0	-0.017475426
197	0x3e8f80f7	0.2802808
198	0xbe3ea9fc	-0.18619531
199	0xbf376230	-0.716342
200	0xbf5b4ce4	-0.856642
201	0x3efd8e58	0.49522662
202	0xbecdef0e	-0.40221447
203	0xbdc64f5c	-0.09683105
204	0xbe3b6614	-0.18300658
205	0x3df5b66f	0.11997687
206	0xbed5b4c1	-0.41739467
207	0xbd827563	-0.06370046
208	0x3ec303df	0.3808889
209	0xbd8b6330	-0.06806028
210	0xbf8ed712	-1.1159384
211	0x3efb45c9	0.4907668
212	0xbf7ba7ed	-0.9830311
213	0xbe41efda	-0.18939152
214	0x3db9d295	0.090733685
215	0xbe89f2fb	-0.26943192
216	0x3e5cf6fe	0.21578595
217	0x3ea73d8f	0.32664153
218	0x3e982458	0.29715228
219	0x3ea4b0ff	0.32166287
220	0xbf534cdf	-0.8253917
221	0x3e9dc302	0.30812842
222	0xbf68fc4d	-0.9100998
223	0x3e517c2c	0.20457524
224	0xbe275ae7	-0.1634327
225	0x3f063ea0	0.5243931
226	0x3cec1d03	0.028822428
227	0x3d0520cf	0.03250199
228	0x3d46e390	0.048556864
229	0xbdb89257	-0.09012287
230	0xbe298336	-0.16553959
231	0xbf39eb94	-0.7262509
232	0x3b65bdf6	0.0035055852
233	0x3d1709a3	0.036874425
234	0x3e89a2fa	0.26882154
235	0xbd4a252b	-0.049351852
236	0xbe994cfd	-0.2994155
237	0x3dc4f165	0.09616355
238	0xbf20bfc2	-0.627926
239	0x3e8cbcc9	0.27487782
240	0x3e19b4c8	0.15010369
241	0x3e99e34c	0.30056226
242	0xbe284451	-0.1643231
243	0x3ea63f5e	0.3247022
244	0xbda56c63	-0.08077314
245	0x3df04afe	0.117330536
246	0x3e24fd97	0.16112362
247	0x3e057ef4	0.1303671
248	0xbe9a2356	-0.30105084
249	0xbe71b50e	-0.23604223
250	0xbe79bf8a	-0.24389473
251	0x3ee6534b	0.44985422
252	0xbeb6b15c	-0.3568219
253	0x3e2bf701	0.16793443
254	0xbf57971f	-0.8421497
255	0xbeb0a169	-0.34498146

arith.constant3 f4 [32, 32]
0	0x3f77f65b	0.96860284
1	0x3eedeca0	0.46469593
2	0x3f581231	0.8440276
3	0xbded2b00	-0.11580467
4	0xbfd161f2	-1.6358016
5	0x3f233c20	0.6376362
6	0xbf0b0ed8	-0.54319525
7	0x3ee8078e	0.45318264
8	0x3da303bf	0.07959699
9	0xbd4bce0a	-0.04975704
10	0x3f96406f	1.1738414
11	0x3ed1003c	0.4082049
12	0xbf14a1fa	-0.58059657
13	0xbf4dc2e6	-0.80375516
14	0x3eb91993	0.36152324
15	0x3f3b201a	0.7309586
16	0xbe4e8b66	-0.20170364
17	0xbee48558	-0.44632983
18	0x3f833b8f	1.0252551
19	0x3f4d7914	0.80262876
20	0x3f219235	0.6311372
21	0xbd8d8774	-0.06910601
22	0xbeb7a27a	-0.35866147
23	0x3e83ff08	0.2578051
24	0x3f8d7596	1.1051509
25	0xbf87bc91	-1.0604421
26	0xbf1990fa	-0.5998684
27	0x3f32fd75	0.69917995
28	0x3e2cc60a	0.16872421
29	0xbea6eb84	-0.3260156
30	0xbe0f1e02	-0.13976291
31	0xbea6da15	-0.32588258
32	0xbf07ee6c	-0.5309818
33	0xbe8174d6	-0.2528445
34	0xbd8beb5c	-0.068320006
35	0xbf2f2cae	-0.6842755
36	0x3e8815ac	0.26579034
37	0xbef22e24	-0.47300828
38	0xbd424c49	-0.047436032
39	0x3f477e98	0.7792754
40	0xbe9469c9	-0.28986958
41	0x3f330e4c	0.6994369
42	0xbe5f18d2	-0.21786812
43	0x3f2174e5	0.6306899
44	0x3f45b82f	0.77234167
45	0x3f3bf512	0.7342082
46	0x3d84f596	0.06492154
47	0x3e8d4d0a	0.2759784
48	0x3f061989	0.52382714
49	0x3f7cffdc	0.9882791
50	0x3dc90bb8	0.09816688
51	0x3ebdcea7	0.37071726
52	0xbe2cdbe3	-0.16880755
53	0xbeda86d3	-0.42680988
54	0x3e374206	0.1789628
55	0x3f20357a	0.625816
56	0xbe405a6c	-0.18784493
57	0x3ea9c8eb	0.331611
58	0x3e44466c	0.19167489
59	0xbeb9190d	-0.36151925
60	0xbe53bb99	-0.20677032
61	0x3f40b900	0.7528229
62	0xbe326a3c	-0.17423338
63	0xbf082019	-0.5317398
64	0x3f798beb	0.9747912
65	0x3f323f5e	0.6962794
66	0x3f36ccdb	0.71406335
67	0xbe80d04c	-0.25158918
68	0xbf1f027c	-0.62113166
69	0x3d30861f	0.043096658
70	0xbf78c42a	-0.9717432
71	0x3f16b18c	0.58864665
72	0x3e49b8c5	0.1969939
73	0x3dde60cc	0.10858306
74	0xbe9e679d	-0.30938426
75	0x3f745c11	0.9545298
76	0xbf286323	-0.6577627
77	0xbc1359c9	-0.008993574
78	0x3e9893e3	0.2980033
79	0x3f3b5551	0.7317706
80	0xbecb34a2	-0.39688593
81	0x3da5131c	0.080602854
82	0x3e4dc35c	0.20094055
83	0x3f02ec04	0.5114138
84	0x3f0167ce	0.5054902
85	0x3f3a3b39	0.72746617
86	0xbceef6dd	-0.029170448
87	0xbe3712e4	-0.178783
88	0xbe058f40	-0.13042927
89	0xbfa03adb	-1.2517961
90	0xbf293eab	-0.6611125
91	0x3e551fbe	0.2081289
92	0x3d1b8f7e	0.03797864
93	0x3e0f39d2	0.139869
94	0xbe7c84a8	-0.2465998
95	0xbf0bb0c3	-0.5456659
96	0xbdcfc9cb	-0.10145911
97	0xbcb8dbfe	-0.022565838
98	0xbe480a05	-0.19535072
99	0xbc2437ff	-0.010023116
100	0xbd4c9848	-0.049949914
101	0x3dd67e1b	0.104732715
102	0xbcb27ec1	-0.021788957
103	0x3e082dc9	0.13298716
104	0xbbec7d3c	-0.0072170775
105	0xbe9428f0	-0.28937483
106	0xbe408d3d	-0.18803878
107	0x3e82e1b3	0.2556282
108	0xbe632027	-0.22180234
109	0x3e43a9da	0.19107762
110	0x3e4a29a2	0.19742444
111	0xbe3866cf	-0.18007968
112	0xbd09ba4e	-0.03362494
113	0xbe853bc8	-0.26022172
114	0xbe4f8fc1	-0.20269682
115	0x3d997e72	0.07494821
116	0xbd3e20b2	-0.0464179
117	0xbe5a236d	-0.21302576
118	0xbd299135	-0.041398246
119	0xbdf920ab	-0.12164434
120	0xbe17588b	-0.1477987
121	0x3dbe1bde	0.09282659
122	0xbdada4cd	-0.08478699
123	0x3e6348f1	0.22195794
124	0x3cb6a2c3	0.022294408
125	0xbe7b5c99	-0.24547042
126	0x3e97db97	0.2965972
127	0xbe761ae6	-0.24033698
128	0x3e306fe2	0.1723018
129	0xbe85f37d	-0.2616233
130	0xbdcf7136	-0.10129015
131	0xbda2d3f6	-0.079505846
132	0x3e2ba95c	0.16763824
133	0x3de34144	0.11096433
134	0xbe400b94	-0.18754417
135	0x3e4d5822	0.20053151
136	0xbe892afd	-0.2679061
137	0xbe7d4209	-0.24732222
138	0x3e90214f	0.28150412
139	0xbe5c532e	-0.21516106
140	0xbd56cfd0	-0.05244428
141	0xbe76ed11	-0.24113871
142	0x3cfff470	0.031244487
143	0xbddf05b4	-0.1088976
144	0x3d6c6850	0.057716668
145	0xbde3b118	-0.11117762
146	0xbe82fbce	-0.25582737
147	0xbe2b71e2	-0.16742662
148	0x3d0e14a0	0.03468764
149	0x3e3f3a20	0.18674517
150	0xbe47cac8	-0.19510949
151	0xbe5dcd65	-0.21660383
152	0x3e0fb49a	0.14033738
153	0xbe158776	-0.14602455
154	0xbd7b4acc	-0.06135063
155	0xbe2846a4	-0.16433197
156	0xbe3bcb50	-0.18339276
157	0x3e795756	0.24349722
158	0x3e96e381	0.29470447
159	0xbe878d57	-0.2647502
160	0xbe076c70	-0.1322496
161	0x3e94f086	0.29089755
162	0x3e50617b	0.20349686
163	0x3da369f4	0.07979193
164	0xbd443500	-0.047902107
165	0xbe8b5125	-0.27210346
166	0x3ccbf3dd	0.024896557
167	0x3e05a145	0.130498
168	0x3dafcac9	0.085836
169	0xbe8d8569	-0.27640846
170	0xbe484c8e	-0.19560453
171	0xbea7d360	-0.32778454
172	0x3d979165	0.07400779
173	0xbe64ba6d	-0.22336741
174	0xbe608f49	-0.21929659
175	0xbe168dc6	-0.1470252
176	0x3e3d0f67	0.18462907
177	0xbd814990	-0.06312859
178	0xbdb518ce	-0.08842622
179	0xbc81473c	-0.015781038
180	0xbe8fb866	-0.28070372
181	0x3e3f9694	0.18709785
182	0xbcc6ef1f	-0.024283944
183	0x3da5fbf3	0.08104696
184	0x3df71c24	0.12065914
185	0xbe69aae5	-0.22819097
186	0xbe9be2e1	-0.30446532
187	0xbe949b6d	-0.2902483
188	0xbc9c3d2c	-0.019072138
189	0x3e061796	0.13094935
190	0xbe027440	-0.12739658
191	0xbc945910	-0.018108875
192	0x3e6f3020	0.23358202
193	0x3d77d33f	0.060504194
194	0xbc99365e	-0.018702682
195	0x3c5099bc	0.012731966
196	0xbe7d7706	-0.24752435
197	0x3df00957	0.117205314
198	0xbe61edee	-0.22063419
199	0x3d742cf3	0.05961318
200	0xbde6796b	-0.112536274
201	0xbe4aa713	-0.19790296
202	0x3cb0b6a6	0.021571469
203	0x3e715740	0.2356844
204	0xbe0979f0	-0.13425422
205	0x3dd3bc37	0.103386335
206	0x3d8e7752	0.06956352
207	0xbd624992	-0.055245943
208	0x3e160c41	0.14653112
209	0xbe9e1a18	-0.30879283
210	0xbcbf1200	-0.023324013
211	0xbdf26f89	-0.1183768
212	0x3cffd3f8	0.031229004
213	0xbe8cf751	-0.27532437
214	0x3e1f3e9b	0.15551226
215	0xbe07f19f	-0.13275765
216	0xbe91dfb9	-0.28491
217	0xbde95538	-0.11393207
218	0xbdada1c6	-0.084781215
219	0xbe756a9a	-0.23966447
220	0xbe0b55bd	-0.13606925
221	0xbe168822	-0.14700368
222	0x3c6fd273	0.014637577
223	0x3e8916e3	0.26775274
224	0x3ea82940	0.3284397
225	0x3ece7909	0.40326717
226	0x3ef2403d	0.47314635
227	0x3f84a3f9	1.036254
228	0xbfb16e3a	-1.3861763
229	0x3f4aa528	0.7915826
230	0x3f69b36b	0.91289395
231	0xbf3eea85	-0.745766
232	0x3f3aca24	0.7296469
233	0xbeaef913	-0.34174404
234	0x3e978d2b	0.2959989
235	0xbe6d772e	-0.23189995
236	0xbe122c38	-0.1427468
237	0xbf82158e	-1.0162828
238	0x3eff73fd	0.4989318
239	0xbe608c9c	-0.21928638
240	0x3f022fb2	0.5085403
241	0xbf132436	-0.5747713
242	0x3d8255e3	0.06364038
243	0xbbd26793	-0.0064210384
244	0x3f2853bd	0.65752774
245	0xbee0e7d5	-0.43926874
246	0x3ef3801d	0.4755868
247	0x3eae85f6	0.3408658
248	0x3f0d4de0	0.5519695
249	0x3f458058	0.7714896
250	0xbe89fc30	-0.26950216
251	0x3f31dc98	0.69477224
252	0x3f004f88	0.50121355
253	0xbf6077c6	-0.8768276
254	0x3e8aabb6	0.2708413
255	0x3f4f0fa3	0.80883235

sequential_1/dense_1/MatMul f4 [32, 3]
0	0x3f288689	0.65830284
1	0xbeb75ba2	-0.35812098
2	0xbf96ac1a	-1.1771271
3	0x3f3baa63	0.73306865
4	0xbf23471f	-0.637804
5	0xbf7f5214	-0.99734616
6	0x3f656a67	0.8961548
7	0xbe4824aa	-0.19545236
8	0x3e32db00	0.17466354
9	0x3e2d18a1	0.16903926
10	0xbf9ea352	-1.2393591
11	0x3eb06ee0	0.3445959
12	0xbfa223bf	-1.2667159
13	0xbefa2384	-0.4885522
14	0xbeac1f79	-0.33617762
15	0x3f3c704f	0.7360887
16	0xbf4aac2c	-0.79168963
17	0x3f5edc69	0.8705507
18	0xbdcd6c7c	-0.100304574
19	0xbf7ebfbc	-0.99511313
20	0x3f852b93	1.0403923
21	0x3e81b990	0.25336885
22	0x3f9d7797	1.2302121
23	0xbf63be34	-0.889621
24	0x3e657713	0.22408704
25	0xbf8411ed	-1.031797
26	0x3cad83eb	0.021181067
27	0x3c330e95	0.01092877
28	0x3f138996	0.57631814
29	0xbf9be42d	-1.2179009
30	0xbe93c128	-0.28858304
31	0xbf802739	-1.001197
32	0xbf4a17b5	-0.78942424
33	0x3f17a6f4	0.59239125
34	0x3fa56652	1.2921851
35	0xbf1b43b7	-0.606502
36	0xbee7e4ca	-0.4529174
37	0x3f89d9c6	1.0769584
38	0x3f4ed556	0.80794275
39	0xbea39e9a	-0.3195694
40	0x3f86d907	1.0534981
41	0xbf37058a	-0.71492827
42	0x3eeefa65	0.4667541
43	0xbe978a47	-0.29597685
44	0xbf8db025	-1.106938
45	0x3edd1b6e	0.4318499
46	0x3ef26a8b	0.4734691
47	0xbfb7b254	-1.4351296
48	0x3dd49c49	0.103813715
49	0x3f230890	0.6368494
50	0x3faa5b86	1.3309181
51	0xbe871e16	-0.2639014
52	0x3f85475e	1.0412405
53	0xbf5f81c2	-0.8730737
54	0xbdfd4ba3	-0.12367942
55	0xbf6641aa	-0.89943945
56	0xbf7a906e	-0.9787663
57	0x3f75d5ad	0.9602917
58	0x3fad1792	1.3522818
59	0x3e009e04	0.12560278
60	0x3f544ede	0.8293284
61	0x3d246ec6	0.040144704
62	0x3f7fad96	0.99874246
63	0xbf88df4c	-1.0693145
64	0xbcc962bf	-0.024583219
65	0xbe96ce33	-0.29454193
66	0x3c7ae739	0.015313917
67	0x3f30030a	0.6875464
68	0x3fb7cda8	1.4359636
69	0x3e7a296b	0.24429862
70	0x3f717ae8	0.94328165
71	0x3fb01c03	1.3758548
72	0xbc296f2d	-0.010341448
73	0xbf90b8ec	-1.1306434
74	0xbf9d5dbb	-1.2294229
75	0xbeec3d7f	-0.46140668
76	0xbf82de0c	-1.0224013
77	0x3f503153	0.8132526
78	0xbeea7e07	-0.45799276
79	0x3dcb5644	0.09928563
80	0xbf1afbe7	-0.6054062
81	0x3f6be4f7	0.9214625
82	0xbed7538c	-0.4205593
83	0x3e790068	0.24316561
84	0x3ee0d152	0.439097
85	0xbf2b3000	-0.6687012
86	0x3f9a4c87	1.2054604
87	0xbdaa3174	-0.08310214
88	0x3f8e4918	1.1116056
89	0xbeca9de2	-0.3957358
90	0xbea51fd0	-0.32250834
91	0x3d586399	0.05282936
92	0x3e5d5990	0.21616197
93	0xbe8e8922	-0.27839
94	0xbfbde823	-1.4836468
95	0x3e9cca09	0.3062289

sequential_1/dense_1/Relu;sequential_1/dense_1/BiasAdd f4 [32]
0	0xbd8ba166	-0.06817894
1	0xbdd779a0	-0.10521245
2	0xbd9b2596	-0.07575528
3	0x3ea9ea18	0.33186412
4	0x3e8ff0ca	0.28113395
5	0xbbbca3e4	-0.005756842
6	0x3eb77790	0.35833406
7	0x3e7329d8	0.23746431
8	0x3e325e53	0.17418794
9	0x3ea5ce67	0.32384035
10	0x3eb914ba	0.36148626
11	0x3d98426d	0.07434545
12	0x3f09e6a5	0.5386756
13	0x3ee24d5a	0.4419964
14	0x3e5b19fd	0.21396632
15	0x3d881f06	0.06646542
16	0x3e95f8f4	0.292915
17	0x3f0a2062	0.5395566
18	0x3e87d041	0.26526073
19	0x3d85c9c8	0.06532627
20	0xbc81edf6	-0.015860539
21	0x3f09ef13	0.53880423
22	0x3ebe18f8	0.37128425
23	0x3e9857db	0.29754528
24	0x3e802e24	0.25035203
25	0x3f2ce559	0.67537457
26	0x3f180581	0.593834
27	0xbe9f68c6	-0.31134623
28	0x3d014882	0.03156329
29	0x3e983d59	0.29734305
30	0xbcfa9d27	-0.030592514
31	0x3f03bba2	0.5145818
